spam_lstm.pt (torch, 189411 bytes, 18 tensors)

lstm.weight_ih_l0 f4 [128, 50]
00000000: 08b9 4d3d 80c8 863e d533 13be a3c2 583d
00000010: 5a4a 613c 2d41 65bd de78 38be a661 3bbe
00000020: e59f bd3c 36d3 073d 54c8 3b3c fcb1 5ebe
00000030: bbbc a43d f3d2 98be 6aa8 633e 88e6 89be
00000040: bad8 17bc 6125 0bbd 2895 e0bd f865 0fbe
00000050: ddc4 35bc 627c 0b3e bf5b 653c 524d 0e3e
00000060: babc c5bd af0c 04be 812e ec3b 8162 bebc
00000070: 1ef5 aa3d 7cc0 243e 82cf d9bd 9570 2f3e
00000080: b1bb d1bd 0a51 023e ed80 9b3d 78db e1bd
00000090: 9aae 333e 6384 37be 886a cf3c 129f 3cbe
000000a0: 925b 1d3d 3746 203e 4901 56bd 508b 6dbc
000000b0: 210b 1f3d 54fc 093e 23fd d8bd 7186 ad3d
000000c0: db8f 853e 6726 253e f2ce 47bb bd96 02bd
000000d0: 9b34 d33c d01b 9dbd 93d9 693c e018 17bd
000000e0: 4a1e df3d 4fe0 1b3e 4bdc 5bbd 85c3 51be
000000f0: 2e02 f23d 23aa 953d 0edb 433e d1e8 a6bd
00000100: 1f77 f7bd 7eb3 e63d 2c3e 44be 8e86 9b3d
00000110: 011b 433e d7d6 b43d 4491 adbd 687c 8abc
00000120: 3c73 f73d 4d36 f43d 93df 703e 9c39 c9bd
00000130: d4a7 453e add1 d83d 0368 383e d4be 07bd
00000140: a80c 71bd 414b 4a3e c038 01be f6a8 203e
00000150: 1bb2 d3bd e586 a2be 80be 8cbd 5e83 993d
00000160: 7247 ae3d bf0a e6bd ea35 08bc 97d8 babd
00000170: 289e 53be eec3 90bd 2282 8bbd da03 a13d
00000180: 0792 ce3d 7959 443d 19b5 ab3c 50fb 0f3e
00000190: 8e63 46bd de74 e7bc 4c18 1c3e e5b2 c6bd
000001a0: 4ffc 473d a638 18be 19ac b43d dd52 0cbe
000001b0: 0643 cdbd efd5 0bbe 9ff1 4d3e 6f93 0b3e
000001c0: 933a 053e c35b b9bd b032 e1bd 57dc f4bd
000001d0: 9008 febc 9461 a13c d423 74bc e53c 5abd
000001e0: a18e d33d cf2e 54be 8119 41be 30f9 3a3d
000001f0: 0426 0cbd d8ef ffbd 24a2 1abe bdb4 363a
00000200: 1255 a8bd c35c 923d c79c fcbd 8382 043e
00000210: 241b 28be 7962 a23d b1d0 193e 8641 92bc
00000220: f698 35bd a6b7 543d 1046 59be 0338 ffbd
00000230: 858d db3c 77bb c63d fdb0 a93d d579 f9bd
00000240: 50a0 3bbc 30ae 64bd 0421 eb3d 7128 21be
00000250: 242e 96bd 8e16 f83d 1195 463e 09ed d23d
00000260: d247 643e 6c24 42bd e86f 23bd 332b b8bd
00000270: 73da e3bd d74c 3cbe c673 783d ee97 743d
00000280: e5e6 a9bc e083 8fbb bc44 993d fc11 89bc
00000290: f370 f3bc 7b13 263e 7aeb b3bd e9d2 153e
000002a0: 7910 2fbe ec98 2dbe 9092 7abd d5ae 17be
000002b0: aa42 2f3e 0c60 66bd 4732 d0bd f28f 3abe
000002c0: 653f f43d 45f2 4ebe 5da5 01be 5c9a 16bd
000002d0: f963 053c de0c b4bc 5d54 19bd 42b0 a93d
000002e0: 4867 1bbe a4ec 463e 3fd6 0bbd c523 adbc
000002f0: 0552 6e3e ae83 e6bc f9e2 f53d 0948 0e3e
00000300: e3e2 223d 9cb8 07bd 4eb7 9cbc 36cb a73d
00000310: c7d9 29be 890c 8dbe 39f7 9abe 8609 8abd
00000320: 4538 073e 18e8 81bd 30c0 01be 2e66 43ba
00000330: fe06 eb3c eaf8 01be 5b40 4b3e 00f4 4bbd
00000340: 0c82 e2bd 3d04 43bd f4cd 33be 615d 59bd
00000350: b2de 2cbe af82 d73d a0e4 aebd 0b47 053e
00000360: 9c5c e93d 855e 87bd 0c2c 2cbd ab90 393d
00000370: efc7 213e c80b 7fbd 5654 00be 2c52 05be
00000380: beb2 adba 9da4 1bbe 651d 013e cf01 bb3c
00000390: 0109 953d b15b 0d3e 77b2 813d 0d61 913c
000003a0: 7be5 53be fa78 753e b670 ecbd 76db a2be
000003b0: 89c1 803e ab2b 88bd adff 9abd d2a3 0e3e
000003c0: ba5c 00bd 8d9f b7bd 7eba d9bd e6fa 81be
000003d0: 2645 083e 3b4b 0dbd cf7e 87bc afd9 04be
000003e0: c185 82bd fa4e 1b3e 4f00 833c fcc0 c13c
000003f0: 9e7e 373e c5fb 4ebd 2e34 a03d 8e93 d2bd
0.050225288 0.26324844 -0.14375241 0.052919995 0.013750637 -0.05597036 -0.18014857 -0.18298969
0.023147533 0.03316041 0.011461336 -0.21747583 0.0804381 -0.2984844 0.22232214 -0.26933694
-0.00926798 -0.033971194 -0.10965949 -0.14003742 -0.011094299 0.13621667 0.013998925 0.13896683
-0.09655137 -0.12895463 0.007207692 -0.02324033 0.08347534 0.16089052 -0.10635282 0.1713279
-0.102408774 0.12726226 0.0759295 -0.110281885 0.17547074 -0.17921595 0.025319353 -0.18420056
0.038417406 0.15651785 -0.05224732 -0.014498547 0.038828973 0.13475162 -0.10595157 0.08472908
0.26086316 0.1612793 -0.003048834 -0.031882036 0.02578192 -0.076713204 0.014273065 -0.036888957
0.10894449 0.15222286 -0.053676885 -0.20484741 0.11816822 0.07307842 0.19126531 -0.08149875
-0.120832674 0.11264704 -0.19164342 0.07594024 0.1905327 0.0883004 -0.08474973 -0.016905025
0.12082526 0.119244196 0.23522787 -0.09825441 0.19302303 0.105868675 0.18008427 -0.033140972
-0.05884996 0.1975527 -0.12619305 0.15689453 -0.10336705 -0.3174354 -0.068722725 0.074957594
0.08509721 -0.112325184 -0.008313635 -0.091233425 -0.206658 -0.070686206 -0.0681193 0.07862063
0.10086446 0.04793689 0.020960378 0.14060712 -0.048434786 -0.028253969 0.15243644 -0.0970209
0.048824605 -0.1486536 0.088218875 -0.13703485 -0.10022549 -0.13655828 0.20111702 0.1363046
0.13010626 -0.09050705 -0.10995996 -0.11956089 -0.031009942 0.01969985 -0.01490112 -0.05328073
0.10329939 -0.20720981 -0.18857385 0.0456478 -0.034215942 -0.124969184 -0.15100914 0.0006969681
-0.08219351 0.07146599 -0.123345904 0.12940411 -0.16416603 0.079289384 0.15021016 -0.01785351
-0.044335328 0.051932953 -0.21218133 -0.12461855 0.02680088 0.09703725 0.08285711 -0.12181441
-0.011451796 -0.05583018 0.114809066 -0.15738083 -0.073330194 0.12113677 0.19392802 0.10299117
0.22293022 -0.047398016 -0.039901644 -0.089926146 -0.1112565 -0.18388687 0.060657285 0.059715204
-0.020739982 -0.0043797344 0.07483813 -0.016732208 -0.029716944 0.16218369 -0.08785148 0.14631237
-0.17096128 -0.16952866 -0.06117493 -0.14812787 0.17115274 -0.05624394 -0.1016584 -0.18218973
0.11926154 -0.20209606 -0.12660737 -0.036768302 0.008141511 -0.021978792 -0.03743397 0.08285572
-0.15176117 0.19426209 -0.034139868 -0.02113522 0.23273475 -0.028138962 0.12006182 0.13894667
0.039767157 -0.03313504 -0.019130375 0.08193056 -0.16586982 -0.27548626 -0.3026674 -0.06740098
0.13205059 -0.063430965 -0.1267097 -0.00074538856 0.028689858 -0.1269261 0.19848768 -0.049793243
-0.11059961 -0.047611464 -0.17559034 -0.05306757 -0.16881827 0.10522973 -0.085397005 0.13015382
0.11394617 -0.06609825 -0.042034194 0.04530398 0.15798925 -0.062267095 -0.12532172 -0.13019627
-0.0013252122 -0.15199514 0.1260887 0.02282801 0.07277108 0.13804509 0.063328676 0.017746473
-0.20693009 0.2397193 -0.115449354 -0.3180806 0.25147656 -0.06648954 -0.075682975 0.1392968
-0.03133843 -0.08965979 -0.10631274 -0.25386733 0.13307628 -0.034495573 -0.01653996 -0.12973665
-0.06373168 0.15166846 0.015991358 0.023651592 0.17919394 -0.050533075 0.078224525 -0.1028205

lstm.weight_hh_l0 f4 [128, 32]
00000000: 4697 673e 039b b6bd fec8 eabd 84b1 b53d
00000010: 48a0 1abe a242 2abe 06ce 19be 780c bb3b
00000020: e0ff 2ebe 7c7a d7bd d75b 9a3d e666 92bd
00000030: 3e72 023c 75af 203e 4311 10be 0439 3abe
00000040: 1bf3 cabc cc52 183e d199 643d 016e 0c3d
00000050: cbc0 193e d550 3d3e 1212 af3d 4aff 1b3d
00000060: b85c aebd 2275 2f3e 564f c93d 8009 65be
00000070: 63b5 aabd c948 01be 2c59 4abd f7dc 013e
00000080: 68c8 c8bd a7c0 a53c a49e 173d 9eb3 41bd
00000090: 3c11 8fbc 5951 363e 0504 04be fc32 b8bd
000000a0: 447b ccbd 93e7 16be 32f7 c9bd a638 f63d
000000b0: eb7c 043d b341 27bc 6b13 8e3d 927b c13d
000000c0: 9866 f3ba 902e fb3d 9c3b 96bc b2dd 1f3e
000000d0: b162 d23d 69b0 2bbd 11b6 ca3d 0bd6 b9bd
000000e0: 5bce a0bd db57 1ebd 1b08 863d fd1d f8bd
000000f0: 58f2 10be d0eb 1f3e 39e1 1d3c 58b0 a93d
00000100: d066 90bd 638e bebd 07c4 b5bd cde5 3bbe
00000110: 8b3f 1bbe 5db3 00be e8d5 04be c0d7 53bd
00000120: 5acf 7bbc 1c78 1a3d 77db a0bb 72aa 823c
00000130: 1781 87bd 8ed3 3e3d f3c5 c3bc e839 d7bd
00000140: 7018 f13d a110 323d 6498 a8bd 23f7 32bd
00000150: 402a 1d3e cb2a 503d bd79 e3bd 8ae4 173e
00000160: fd4d 8bbc ebe1 a63d 4b09 92bd 87d6 823d
00000170: 3032 323e 061e 253c 6479 bc3d ba78 84bc
00000180: a1ea 353d c212 183e a0ac 873d 85a6 08bd
00000190: c9a1 983d 85f6 a23d 3060 09be fe9c 273e
000001a0: c81e 733e 8bd0 4ebe 5e3a dbbd 58ee d4bd
000001b0: bbd3 f63c ff94 c13d 5c0f 8c3b a63a 073e
000001c0: 3a74 f7bc 0d10 4abe b8d2 893e 500a 163e
000001d0: 0dc6 8d3c c8e4 45be 271d f73d 68e6 a6bd
000001e0: 5cfb d4bb c996 47bd f3c6 343d da9f bf3d
000001f0: c0cd 723e 4494 e23c 99b0 4bbd 8b03 263e
00000200: fb8d 04bb 46f3 e6bd 4882 ca3c 9ad2 3a3e
00000210: 380a 09be 72a7 2fbc 12b4 a6bd 9cc0 583e
00000220: fe4d 213e 7099 aa3d c110 b0bd 1aa8 df3d
00000230: c148 083e 9266 c1bd ce64 fb3d ca9a 383d
00000240: db14 6c3c ceed 1c3b 1147 90bc e143 44bd
00000250: d53b 1d3e 33f2 d0bd 0e2d e338 0a0e 7d3d
00000260: a7fc 11be 603f 263e 2abb eb3d c675 503d
00000270: 8276 dcbc e065 013e 3ed1 01be 48cc 9c3d
00000280: f673 ce3d 7e27 a73d 8510 3fbe 51ab c83d
00000290: 1869 87bd 9971 0d3e cc86 dbbd 7615 15be
000002a0: 8610 41be e93e 1a3e ffab 1bbc 15e4 8c3d
000002b0: 378e f43d 1ccc 8fbd 2300 a03d cd97 0fbe
000002c0: d969 9abd 16ad 4dbe ff37 bd3d b575 ad3c
000002d0: f57a f73d 778f 1bbe 1937 213d fbed 43be
000002e0: 48bc 023e 6b4d 7b3c 64f2 02bc 574f 94bd
000002f0: 632b 393e e260 9d3d 49ad 0dbc 3e59 fdbd
00000300: b877 843d 5dcb d0bd 9630 4e3d 617f 993d
00000310: 2883 aebc 64a5 18bd 3c67 303d 8556 0a3e
00000320: 37ec 103e 2997 50bc 2832 13bd 0f7a 293e
00000330: 2851 09be 4792 92bd b58e 34be d949 9abd
00000340: 0414 433e 4048 e1bd fd04 303e 5f04 b93d
00000350: 017f 86bd fa3a d43d f89a 6ebd 899a c1bd
00000360: 2728 9ebd 3682 01be 672c 0bbe 97b1 77bc
00000370: 35aa e83d 68bc 46bd 98b5 18bd 28b2 173d
00000380: baf5 803e 48fb 8fbd 3e18 893d cdef fa3d
00000390: af58 abbd 2679 eebc fc8b ebbd f4e4 c1bd
000003a0: d876 783e bf82 7abc 2ffd 5b3d a2ac c83c
000003b0: 0ace 2cbe f789 0d3e 3043 d23d 5cb5 5c3e
000003c0: 3c43 963e 57a0 2fbe 8e0b 6cbd 921a 2f3e
000003d0: c6af e8bd af16 44be c8d5 db3d 7453 40be
000003e0: 6bd7 7b3e 1fd2 7d3e 35be 3cbc 7085 ebbd
000003f0: b2e1 55bd efe0 383d 47e7 83bd d6f0 15be
0.226163 -0.08916285 -0.114641175 0.08871749 -0.15100205 -0.16626981 -0.15019998 0.0057082735
-0.17089796 -0.10521409 0.07537048 -0.071485326 0.007961808 0.15691932 -0.14069085 -0.18185812
-0.024774125 0.14875335 0.055810753 0.034284595 0.15014951 0.18487866 0.085483685 0.03808526
-0.085137784 0.17134526 0.09829585 -0.22366905 -0.08335378 -0.12625422 -0.049401447 0.12681948
-0.098038495 0.020233465 0.037016526 -0.047290437 -0.017464273 0.17804469 -0.12892158 -0.089940995
-0.099844486 -0.14736776 -0.09861602 0.120225236 0.032345694 -0.010208535 0.069372974 0.09447397
-0.0018570004 0.122647405 -0.01833897 0.15611914 0.1027273 -0.041916285 0.09898008 -0.090740286
-0.07851859 -0.038658004 0.06544515 -0.12115095 -0.14154947 0.15617299 0.009636217 0.08285588
-0.0705086 -0.09304502 -0.0887528 -0.18349381 -0.15160958 -0.12568422 -0.12972224 -0.051719427
-0.015369261 0.0377122 -0.0049089747 0.015950415 -0.06616419 0.046588473 -0.0238981 -0.105090916
0.11772239 0.04347289 -0.08232191 -0.04369272 0.15348148 0.05082206 -0.11107204 0.14833274
-0.017004961 0.08148559 -0.07130679 0.06388574 0.17401958 0.010077959 0.09202841 -0.016170848
0.044413213 0.14850906 0.066247225 -0.03336193 0.07452733 0.07957176 -0.13415599 0.16368482
0.23742211 -0.2019674 -0.10704492 -0.10397023 0.030130258 0.09452247 0.004274292 0.13205966
-0.030206788 -0.19732685 0.26918578 0.14652371 0.017306352 -0.19325554 0.12066107 -0.08149415
-0.006499691 -0.048727784 0.044135045 0.09356661 0.237113 0.02765859 -0.049728964 0.16212289
-0.0020226229 -0.112768695 0.024720326 0.182444 -0.13382804 -0.010721074 -0.081398144 0.21167225
0.15752408 0.08330047 -0.085969456 0.10920735 0.13309003 -0.09443392 0.12275086 0.045069493
0.014409269 0.0023945454 -0.017612012 -0.047916297 0.15354855 -0.10202446 0.000108325956 0.061780967
-0.14256535 0.16235113 0.11510308 0.050893568 -0.026911978 0.12636518 -0.12677476 0.07656151
0.100807115 0.081618294 -0.18658645 0.09798301 -0.06611842 0.13812865 -0.1071907 -0.14558968
-0.1885396 0.15063061 -0.009501456 0.06879441 0.11941188 -0.07021353 0.07812526 -0.14022751
-0.0753972 -0.20085558 0.09239196 0.021174291 0.12083999 -0.15191446 0.039359186 -0.19133751
0.12767136 0.015338282 -0.007992361 -0.072416954 0.18082957 0.076844946 -0.008647271 -0.12370537
0.06468147 -0.101950385 0.050339304 0.07494999 -0.021302775 -0.037267104 0.043067202 0.13509567
0.14152609 -0.012731352 -0.035936505 0.16550468 -0.13409865 -0.071568064 -0.17632563 -0.075336166
0.19050604 -0.11000109 0.17189403 0.09034037 -0.06567193 0.103628114 -0.05825326 -0.09453303
-0.07722502 -0.12647328 -0.13591157 -0.015118024 0.113605894 -0.048519522 -0.037282556 0.037035137
0.25187474 -0.0703035 0.06694077 0.122527696 -0.083665244 -0.029110502 -0.11501309 -0.094674975
0.24264085 -0.015289961 0.05370825 0.02449638 -0.16875473 0.1382216 0.10266721 0.21553558
0.2934817 -0.17151009 -0.057628207 0.1709998 -0.11361651 -0.19149278 0.10734135 -0.18781835
0.24593894 0.24787186 -0.011519958 -0.115000606 -0.052217193 0.04513639 -0.06440597 -0.14642653

lstm.bias_ih_l0 f4 [128]
00000000: 1c3f 5cbd ec78 173e 4369 e8bc 9cf9 423e
00000010: 49c1 9dbc 4498 ec3c 4ddd ba3d d424 87bd
00000020: 3e23 793d 6df2 23bc a56e f4bc e274 1f3e
00000030: 34c5 303e a43d f9bb 6a14 0cbe b527 78bc
00000040: 6d32 e53d e241 d33d 45d3 323e fcdf 14be
00000050: 4cfb ff3d 7c3b 003e bc5d b53d 1f9a a8bc
00000060: 2330 b2bd 1de7 173e 185e 93bd b5a1 c93d
00000070: 5bf2 1d3c abcc 15be 2988 b9bd 33fd b1bd
00000080: d128 383e ceae a83d 2247 3cbd 1d49 de3d
00000090: 583c db3d 2408 793d b9bd 193e 2d25 c23c
000000a0: aef9 c43d f782 acbd fce9 72bd 34da 453e
000000b0: 118e 263e 304c bfbd 5374 b0bb 314e e63d
000000c0: 3642 ef3d 59a8 553e 5e7f f23d d50e 053e
000000d0: 4be1 6c3e 06a6 a0bd ef5d b9bb 3606 b5bd
000000e0: 5949 683e fe79 613d de59 0abe 5e6c 8dbc
000000f0: c0fe 493d d51d 92bd 7afb 20be 6a21 893d
00000100: 32bd c3ba f899 8b3d cf5d 803d 029d 6cbd
00000110: 09c1 a03d 15b9 ac3c 23d6 18bd 64d2 9e3d
00000120: 516f be3d f447 c83c 2852 22be 7b67 95bd
00000130: 6066 0c3e 2ddf e73b 6893 27bd 239c 863c
00000140: 67d6 00be 7aa0 d73d f438 0abe 9298 3b3e
00000150: 8500 373e 6a95 c6bc 57ec 5b3d 21e4 063e
00000160: a81c 38bd 694e bc3d aee0 cabb 8bf8 e4bd
00000170: 494f 2bbd 8720 0a3e 9967 e63d 6526 c13d
00000180: 5649 a7bd 1463 0b3e 073e 32be bc39 003e
00000190: 274d dd3c 9864 0f3e 6505 a03d af97 353e
000001a0: 2282 223e 32f3 3a3d 0209 66bd 044a 753e
000001b0: 8c67 fa3d 54cc bfbb 45c0 523e 2d96 3e3e
000001c0: bc4a 133d cbd9 63bd a1a8 573d d89f 093e
000001d0: dae4 a03d 25bb aebd 753e 31bd d369 f83d
000001e0: 80ca 433e f3d7 7d3d 2c5e 98bd 81fa a1ba
000001f0: 244e 84bd 8737 e3bd 96d7 efbd c700 c6bc
-0.053771123 0.14792222 -0.028370505 0.19040531 -0.019257205 0.0288812 0.09124241 -0.06598821
0.060824625 -0.010006529 -0.029837916 0.15571931 0.17262727 -0.007606225 -0.13679662 -0.015146186
0.111912586 0.103153005 0.17463405 -0.14538568 0.12499103 0.12522691 0.08855769 -0.020581303
-0.087005876 0.14834256 -0.07195681 0.09845296 0.009640302 -0.14628856 -0.090591736 -0.08690872
0.1798432 0.08236466 -0.045966275 0.10853789 0.10704869 0.06079878 0.1501378 0.023699367
0.09617935 -0.08423417 -0.059305176 0.19321519 0.16265132 -0.093407035 -0.0053849607 0.112453826
0.116825506 0.20865001 0.118406996 0.12993939 0.23132817 -0.078441665 -0.0056569497 -0.08839075
0.2268423 0.05504798 -0.13510844 -0.017263588 0.049315214 -0.07134596 -0.1572093 0.06695826
-0.0014933704 0.068164766 0.062678926 -0.05776692 0.078493185 0.021084348 -0.03731359 0.077549726
0.09298576 0.024448372 -0.15851653 -0.07295128 0.13710928 0.007076165 -0.040912062 0.016431874
-0.12581788 0.10528655 -0.13498288 0.1831992 0.17871292 -0.024241168 0.053692188 0.13172962
-0.044949204 0.09194643 -0.0061913347 -0.11180218 -0.04182366 0.1348897 0.112502284 0.09431151
-0.081682846 0.13612014 -0.17406474 0.12522024 0.027014328 0.14003217 0.07813529 0.17733644
0.15869954 0.045642085 -0.056160934 0.23954016 0.12226781 -0.005853215 0.20581158 0.18611975
0.035959944 -0.055627625 0.05265105 0.13439882 0.0785615 -0.08531789 -0.043272454 0.12129559
0.19120216 0.061973523 -0.07439837 -0.0012357981 -0.06460217 -0.110945754 -0.11711042 -0.024170293

lstm.bias_hh_l0 f4 [128]
00000000: a701 123e abbf e6bc aae8 18be 9564 f93b
00000010: 5a79 1e3e 4363 1d3e e4fe a5bc a6f9 823c
00000020: b440 043e 04fb f1bd 3d53 1b3e 1904 76bd
00000030: 148a fb3a d5b9 4abe 10f3 3c3d 32b5 713e
00000040: 8ae9 eb3c 6913 06bd b2ba 6abd 6497 903d
00000050: 69f8 3a3e 6fb2 94bc 7ed6 803d 445c 4c3d
00000060: 92b2 80bd dabd e23d 2517 c43d 4a07 8cbd
00000070: 2041 833e 5526 c03d 343f 4b3c a891 b43d
00000080: a1d5 283e 948a b53d 4cbd 283e af4d ee3d
00000090: a348 e63d 8c35 bd3d 3a62 ab3c 79e1 e83d
000000a0: 6fbd 683e 5717 a93d b2e2 03be f5bf afbd
000000b0: 6c24 89bc c19c c3bc 6676 9ebd f633 9ebd
000000c0: 33d4 5f3d d98d ccbd 6fde f23c 49f4 2ebe
000000d0: a633 fe3c 7e97 213e c0cc 883b b76b f8bd
000000e0: f354 2f3e f07c 163e d679 ebbd b555 c9bc
000000f0: ecba f33d 4299 093e f7e2 12be d7c9 5a3d
00000100: 086b e13d 58f7 103c 1b6a 09be dfde cc3d
00000110: 9298 de3d 4aa5 a53c b676 2dbe 4369 ad3d
00000120: 4d8e 2d3d 0444 303e e827 b7bd 6d24 9b3d
00000130: bd77 2bbd 76d9 323e 473e 27be ff4c 22be
00000140: 7cee 41bd dc76 09be 0aab 453d 6e08 0c3e
00000150: 14cb fcbd d444 413d 9716 9abc b6b2 403d
00000160: 06bc f03d fe3d 9dbd 7208 21be 08c9 b8bd
00000170: ec08 eb3d 23d3 193e bb8d f23d 536b bcbd
00000180: 5bbb b6bd a546 b8bd c91e f8bd 0e07 593e
00000190: 10e9 00bd d936 873d 4150 563d fc1c 17be
000001a0: 4b59 85bc 279c e53d 5213 9bbd bc5e a53d
000001b0: d724 9c3d a529 4bbc 5661 a9bc 5b1d e03d
000001c0: c113 f73a 148a 563e 110b b2bd 245e 9b3d
000001d0: 9db2 db3c 6d8f 80bc a083 3c3e 3b55 3f3e
000001e0: 1fd7 213e 5000 f43c 22ad ddbd c3cb 19bd
000001f0: cee6 283e b4d9 8dbd ac20 c2bd c9a3 edbd
0.14258443 -0.028167566 -0.14932504 0.0076108673 0.1547598 0.15369897 -0.020263143 0.015988182
0.12915307 -0.118154556 0.15168472 -0.0600625 0.0019190931 -0.19797452 0.04613024 0.23604277
0.028797884 -0.032733355 -0.057306953 0.070601255 0.18258823 -0.01815149 0.06290911 0.04989268
-0.062840596 0.110713676 0.09574727 -0.06837328 0.25635624 0.09382311 0.0124052055 0.08816844
0.16487743 0.08864322 0.16478461 0.11635911 0.11244323 0.09238729 0.020920862 0.113711305
0.22728513 0.08256405 -0.12879446 -0.08581535 -0.016741 -0.023878457 -0.077374265 -0.077247545
0.05464573 -0.09987993 0.02964708 -0.17085375 0.031030487 0.15780446 0.0041747987 -0.1212992
0.1712225 0.14696097 -0.11497848 -0.024577001 0.11900887 0.1343737 -0.14344393 0.053415146
0.11006743 0.008848034 -0.13419382 0.10003447 0.10868944 0.020220418 -0.16939816 0.08467343
0.042372037 0.17213446 -0.089431584 0.07575307 -0.04186224 0.17465767 -0.1633235 -0.15849684
-0.047346577 -0.13424248 0.04825882 0.1367509 -0.123434216 0.04718478 -0.0188096 0.047045432
0.117546126 -0.0767784 -0.15725878 -0.09022719 0.11476311 0.15021949 0.11843439 -0.09200158
-0.08922454 -0.089978494 -0.12115247 0.21194097 -0.031472266 0.06602258 0.05232263 -0.1475715
-0.01627793 0.11211424 -0.075720444 0.0807471 0.07624214 -0.012400066 -0.020676296 0.10943099
0.0018850492 0.2095111 -0.08693517 0.07586315 0.026818568 -0.01569339 0.18409586 0.18684857
0.15804718 0.029785305 -0.10824038 -0.037547838 0.16494295 -0.06926289 -0.09478888 -0.11603505

lstm.weight_ih_l0_reverse f4 [128, 50]
00000000: 8e98 943d 036b 1b3e ab86 543d 57fd fc3c
00000010: 1532 eebd 27f1 eebd 2958 253d 41f7 313d
00000020: a68f d03d 1901 51bb 8704 623e 9338 4ebc
00000030: 0731 e73d d971 b73d 598c 06be cc4e 85bc
00000040: 58dc 1e3e 8340 533e 8ef6 d3bd 0ee3 0c3d
00000050: 9b1d 8a3e 28f1 1c3e 09c6 4c3d cc95 9dbd
00000060: 8fbf 54be c3ba 1b3c 3f53 8f3d f92d 06be
00000070: 575c b0bd a02f 3bbe cee7 95bd c810 e0bd
00000080: a4ba 7dbc 98f2 46be 96f7 a7bd 510e 033d
00000090: af10 d3bd cd5b 343b 9643 0b3e 160d fabd
000000a0: 1026 5a3e 31b4 44bd 34ec 09bd b355 ef3b
000000b0: a188 2c3d 8d78 81be 106a 023e ca89 82bc
000000c0: c1b5 7a3e f695 233e d733 9f3b 4446 4f3d
000000d0: 693c 853d 31d6 f53d 2096 4a3d 7f9f 03be
000000e0: 1e7f 52bd d8a3 16be d71f 4bbd 9a0a a8be
000000f0: ca6e ad3d 0b0c b63d 3ef4 e4bd 17e6 f23d
00000100: 9d48 213e e0ab 0b3e b042 99be b50f 9f3c
00000110: 34a5 7e3d a3c6 9d3d 0eac b53d 178b dc3d
00000120: d421 403e 03cc 343e a158 debd 470e fcbd
00000130: acb7 113e ad34 f1bd cf28 b23d 5e13 423c
00000140: 0bc8 1d3e 1c4a 073e 3d5e 653e 817c 2a3c
00000150: 0bbb 35bc 7a1a af3b 520c b43c f0bc f8bd
00000160: bdf9 14be 2894 d1bb 5972 6bbe cbbe 24bc
00000170: ea55 463d ee12 973c 0bf3 d3bd 9fc6 9f3c
00000180: eecf 063e cc3b 6dbe 7f99 a03d 1ff1 103e
00000190: 00b8 19be bbc7 0a3e b495 c63d e0b7 03be
000001a0: 0590 15be 14ab 6ebd 171b bcbc de57 3abe
000001b0: 51bf f5bd f608 3f3d 245d 97bd d8aa 7dbd
000001c0: d086 babd fc87 1ebb c74d 95bd f490 fc3c
000001d0: 2486 bbbd 37bd 3dbc f566 b33c fb3e a2bd
000001e0: b451 44bd 95dc eebd 90bb b93d 05ea 893e
000001f0: a869 30bd dfea b23c 252b 193e 3d91 29be
00000200: 5a98 043e 91a5 b3bd 9fca 943d 7890 4dbd
00000210: 3889 0cbe 900d 11bb 5667 0b3d 1638 cfbd
00000220: dec0 963c de0b f9bd 4736 23bd 0eee 8e3e
00000230: 652b afbd 9e0b 423d 802b c7bd 2725 0f3d
00000240: 1594 c8bc 8131 433e a52f bf3d 59ed 013e
00000250: 3e1e f73d 01a4 0abe 9422 27bd c180 843e
00000260: 461c c63d bc54 54bd 190b 47bd bd1f b33d
00000270: 998a 0b3e 23f4 a7bd d72d a1bd f0d9 3bbd
00000280: aff5 09bd a460 173d 3cad b23b eaa3 f8bd
00000290: be5b 2d3d fac3 6d3d 1f61 dbbc 7989 07bd
000002a0: 669f a73d 909e 183e 3ac7 91bd a28a 693d
000002b0: 187e c03b a49d 6d3e 507d f4bd 119c 82bd
000002c0: 7565 393e df7b 113d 6610 01be dfb1 403e
000002d0: 3ece f7bd 22b6 b6bd d0cd 4dbe 0944 a0bd
000002e0: 9cb8 2cbc 2118 8a3d 81a9 b33d 6512 f93d
000002f0: 4f55 f03d 0207 28be e452 043e 1d70 16be
00000300: 120f 8a3e 8e68 19be 4b8e a43d 8259 b7bb
00000310: ee04 31be b05e d03d 1699 a23d 76d5 0ebe
00000320: b27e 1cbd a205 ddbd 0d8c eb3d a861 46be
00000330: 97a7 62bd e94a 70be 4bf4 d1bd eb36 903e
00000340: 039c 023e b165 ee3d aff5 e23c e900 46be
00000350: 8b1d d6bd 2d32 2bbd 8635 6d3b 81c9 fcbc
00000360: 5204 893e 6caf 97bd 36b0 d5bd e9ef 523d
00000370: 63be cebd 5814 7ebd 475f ac3d a95b e73c
00000380: 85b1 32be a2bb 2abd 4d03 ba3d 3b15 01be
00000390: a2d5 043c c1bc 023d c5b4 13be 375c 9abc
000003a0: 3e53 143d fe91 e7bd 7da8 f5bd a35f 01be
000003b0: 7d23 78bc 2969 cb3d 5f0c 253e 3b79 abbd
000003c0: faf5 1a3b 489d 71bd 497f b23c 7e9b abbd
000003d0: 6adf 81bb b4e8 593d 5fbc 61be 552b da3d
000003e0: 381e 39be 0fdb eebc 5756 cf3d 7f39 c63d
000003f0: da8a f3bd f291 45be 7660 c4bd 4e17 61bd
0.0725566 0.1517754 0.051886242 0.03088252 -0.11630646 -0.1166709 0.04036728 0.04344869
0.10183649 -0.0031891523 0.2207204 -0.0125867305 0.11288648 0.089572616 -0.13139476 -0.016272925
0.15513742 0.20630078 -0.10349761 0.034396224 0.26975712 0.15326369 0.04999355 -0.07694587
-0.20776199 0.009504977 0.069983 -0.13103475 -0.086113624 -0.18279886 -0.07319604 -0.10940701
-0.015486393 -0.1942848 -0.0820152 0.031996075 -0.103059165 0.0027520538 0.136 -0.12209527
0.21303582 -0.048023406 -0.033672526 0.0073039173 0.042122487 -0.25287285 0.12735772 -0.015934844
0.24483396 0.15975174 0.0048584747 0.05060412 0.06505663 0.120037444 0.049459577 -0.12853812
-0.05139076 -0.14710939 -0.04959091 -0.32820588 0.08468397 0.08889016 -0.11179398 0.118602924
0.15750356 0.13639784 -0.2993369 0.01941667 0.06216927 0.077039026 0.088707075 0.10768717
0.18762904 0.1765595 -0.10856748 -0.12307411 0.14230222 -0.11777625 0.0869919 0.011845438
0.15408342 0.13211864 0.2239923 0.010405661 -0.011091958 0.0053437324 0.021978531 -0.12145412
-0.14548393 -0.0063958354 -0.22992839 -0.010055254 0.048421778 0.018441644 -0.10349091 0.01950389
0.13165256 -0.23167342 0.07841777 0.1415448 -0.15011597 0.13552754 0.09696522 -0.12863111
-0.1460572 -0.05826862 -0.022962136 -0.18197581 -0.11999381 0.046639405 -0.07390812 -0.061930507
-0.09107745 -0.002418994 -0.072902255 0.030830838 -0.09156445 -0.011580757 0.02189968 -0.07922169
-0.04792948 -0.116631664 0.09068978 0.26936355 -0.04306951 0.02184051 0.14957865 -0.1655931
0.12948743 -0.08771814 0.072652094 -0.050186604 -0.1372422 -0.0022133328 0.034034096 -0.101181194
0.018402513 -0.121604666 -0.039846685 0.27915996 -0.08553199 0.04737436 -0.09725094 0.03494754
-0.024484674 0.19061853 0.09335259 0.12688197 0.12066315 -0.13539125 -0.04080446 0.2587948
0.096733615 -0.05183862 -0.048594568 0.08746288 0.1362709 -0.08200862 -0.078700714 -0.04586214
-0.033681568 0.036957398 0.00545278 -0.12140639 0.04232382 0.058048226 -0.02677971 -0.03309009
0.081847 0.14904237 -0.071180776 0.057016976 0.0058744065 0.23204666 -0.11937964 -0.063774236
0.18105109 0.035518523 -0.12603912 0.18817852 -0.120998845 -0.08921458 -0.20098042 -0.07825477
-0.010542061 0.067428835 0.08772565 0.121617116 0.11735021 -0.16408923 0.12922245 -0.14691205
0.26964623 -0.1498129 0.08034953 -0.005595387 -0.17287037 0.1017431 0.07939355 -0.13948616
-0.038206764 -0.1079209 0.11501322 -0.1937319 -0.055335607 -0.23466076 -0.10251673 0.281669
0.12754826 0.1164049 0.027705042 -0.19336285 -0.104548536 -0.0417959 0.0036195233 -0.030857803
0.2676111 -0.07406506 -0.10434 0.051498327 -0.10094907 -0.06203112 0.0841661 0.02824195
-0.17450531 -0.041682847 0.09082661 -0.12605755 0.008107575 0.03191829 -0.14424427 -0.0188428
0.0362122 -0.11307143 -0.11995027 -0.12634139 -0.01514518 0.09932167 0.16118 -0.08372732
0.0023645149 -0.058987886 0.02178921 -0.08379267 -0.0039634006 0.05320044 -0.22044514 0.10652796
-0.18077934 -0.02915719 0.1012389 0.09678935 -0.11891718 -0.19293955 -0.09588711 -0.054953866

lstm.weight_hh_l0_reverse f4 [128, 32]
00000000: 676e 043e 2633 fb3d 887a 8cbd a4eb 133d
00000010: cafb eebd fcc1 423c 97e3 ffbc ddf2 d53d
00000020: ea65 883d 50f2 7bbd 8a8c 3b3d f5c2 5b3e
00000030: be7c 56bd f3d9 0b3e c402 5c3d ee17 3f3e
00000040: 4d7f 6ebd bccd 77bd a987 963c 2579 0cbe
00000050: c6fe bebd deb4 e53d bbfe 9a3d d4ee 153e
00000060: 9da5 223e c34d 86bd 3081 f2bd e6f5 b03d
00000070: d892 543e 1bb3 743d a715 0cbe 8249 2e3d
00000080: 545f e3bd ff11 573d dfd0 ab3c 8964 87bc
00000090: ca7f 1b3e e39d 6ebe 0d98 8ebd 93e8 c3bd
000000a0: 0392 0dbe 1708 d73d 0a88 9bbd a04f 1cbe
000000b0: 15c1 be3d 28ed bf3d 9208 513d cba0 043d
000000c0: d33b aebd c618 193d 99ff 6ebe aa64 0e3e
000000d0: 63c0 67bc b434 cf3d b374 e83d 9a7c d8bd
000000e0: add7 c23d 9391 733d 8f7e 4d3e 9d4f debd
000000f0: 51b7 203e c761 e6bd d4c2 673e bd8f 19bd
00000100: f9bf cebc 04ff 7f3d 9cef f8bd 09a5 f23d
00000110: d2f6 f63d a220 19be e649 24bd dd0a 29be
00000120: 3755 903d ed0d 2e3d 3362 1bbc e3b2 0d3e
00000130: b1d4 953d a726 0ebe a109 7b3c 6b2a e43d
00000140: 1021 25be cac7 5d3e f628 373e 606b a03d
00000150: 9df1 8ebb 1809 bd3d f5b9 163c c889 123e
00000160: fdd6 12bc f356 0abe b194 283e 2391 95bd
00000170: bc08 f93d eaa7 083e 2304 b23d 5b3c 49be
00000180: 95e8 e0bd 8cc4 193e c3ef ddbd 29d4 183c
00000190: 7608 ba3d 0e89 83bd a3c7 363e 9dd3 9fbd
000001a0: d44c 0d3e 8334 24bc a023 093c 6d96 8ebd
000001b0: 3f86 ccbd 12ff c3bd bc23 133e 1560 b1bb
000001c0: da8f 6c3d 2232 443e 5d8d 623e a7ae 6abe
000001d0: f919 553d c722 493e 362e 11be 1efa 27bd
000001e0: 81ba b73d 3924 25bd 0c2a e7bd 7908 3e3d
000001f0: 5818 1cbe b56a 073e cc7f f3bd 2b2c ecbd
00000200: 9747 333d 9b52 0ebe d3da d1bc 62c5 e63d
00000210: 5b41 17be 4d4c 6abd 4631 ab3d 573f 37be
00000220: 4a05 0f3e bff3 1abe 7355 623e 28ce c7bd
00000230: aad9 2c3e d2fd 0bbe a1aa 683c c8f7 243e
00000240: 0dfe e93d e582 183e f16e 0cbd 93bc ba3d
00000250: a094 6ebc 5f12 3e3e 364c 343e 7b54 29bd
00000260: 88c1 30bd 7ac6 3f3e 4c57 73bc 0ed7 41bd
00000270: e0d6 e2bd e27f 18be 613b 6a3d 1af3 1e3e
00000280: 8ce1 643e aa97 d138 454d 383e 198f 55be
00000290: 21f4 933c 7975 30bd 9c75 413e d732 9b3c
000002a0: 2091 ed3d da01 3f3e 86aa 963d e245 0f3d
000002b0: e3a9 6abd a4a3 f7bd 5247 11be 926c 2fbe
000002c0: f2b2 e83d 32fb 1f3e 5b9c 3a3e 5f7f 183d
000002d0: 7497 183d c6d2 0fbd cff0 033c 5270 fbbd
000002e0: 8bd3 393e 1fe3 ef3d 03cb 43bd ba8a 48be
000002f0: 231b 183e 599e 07be cbfa 0f3d 49b5 723d
00000300: efdc dabd 7b39 c7bd a0b6 a13c 0110 8dbc
00000310: 34ac 453c de4d a23d 8219 f3bc 143d 05be
00000320: b305 8fbd d7b3 8d3b 5e10 023e e182 f4bd
00000330: 105c 26be 48c2 fb3d e23e 473c a7d8 e2bd
00000340: be84 00bd 064e 1d3e 7eba 623e f3e2 a3bd
00000350: 3931 3b3e ded8 f43d 14a0 eb3d 1c5f 0abe
00000360: 9606 a43d 4ba9 e3bd cd1d c53d 8f63 5ebe
00000370: ce49 eabd abe4 163e c946 2ebc 432a 363b
00000380: 5282 153d d715 263d 4df3 013d ec10 333e
00000390: 18ee 89bd 4c4d 13bd 7f5f 1dbe d18f 24bd
000003a0: 4f5f b6bc df7e 793d 0f56 013d bcc8 e53d
000003b0: 4218 aa3d e2f7 0fbe 84f3 56bc 4a37 c83d
000003c0: 7ff7 75bc 8cf6 723d 406f 47be 5aff 11be
000003d0: 5ed8 2bbd 4c1c a53c a7e8 293e e50b bbbd
000003e0: e3e4 98bd 5d9d 063d f288 ae3d 35d5 09be
000003f0: de7e 00be fa63 f4bd 42b8 8c3d e3f8 53be
0.1293274 0.12265615 -0.068593085 0.036113396 -0.11669119 0.01188707 -0.031236453 0.10446713
0.066600636 -0.061510384 0.045788325 0.21461089 -0.052365057 0.1365736 0.053713575 0.18661472
-0.058226872 -0.060498938 0.018375235 -0.13718088 -0.09325938 0.11216138 0.07568117 0.14641887
0.15883489 -0.065578006 -0.11841047 0.086406514 0.20759141 0.05974112 -0.13680135 0.04255057
-0.11102167 0.052507397 0.020973621 -0.016527431 0.15185466 -0.23302417 -0.06962595 -0.095658444
-0.1382523 0.1049959 -0.07594307 -0.1526475 0.09314171 0.09371406 0.051033564 0.032379907
-0.08507504 0.03737714 -0.2333969 0.13905588 -0.01414499 0.10117474 0.113503836 -0.10570641
0.09513793 0.059465002 0.2006781 -0.10855029 0.1569493 -0.11249118 0.22632915 -0.037490595
-0.025238024 0.06249906 -0.12155077 0.11847884 0.12058796 -0.14953855 -0.040109538 -0.1650805
0.070475034 0.04249375 -0.009483862 0.13837771 0.07315958 -0.13881932 0.01532212 0.11140903
-0.16125894 0.21658245 0.17886719 0.0783298 -0.0043622986 0.0923025 0.009199609 0.14310372
-0.00896239 -0.13509731 0.16462971 -0.07303073 0.12159869 0.13345304 0.08692195 -0.1965193
-0.109818615 0.15016383 -0.108367465 0.009327927 0.09083645 -0.064226255 0.17849593 -0.07804034
0.13798839 -0.010022285 0.00837031 -0.06962285 -0.09986543 -0.09570135 0.143691 -0.005413065
0.057754375 0.19159749 0.22124238 -0.22918187 0.052026723 0.19642173 -0.14177784 -0.041010015
0.0897112 -0.040317748 -0.11287317 0.0463948 -0.15243661 0.13224299 -0.1188961 -0.11531862
0.043769445 -0.13898699 -0.025617039 0.112681165 -0.14771025 -0.057201672 0.083590075 -0.17895256
0.13966861 -0.15132044 0.22102909 -0.09756118 0.16879907 -0.13671044 0.014200837 0.16110146
0.114254095 0.14893682 -0.03428549 0.09117999 -0.014561802 0.18561696 0.17607197 -0.041340332
-0.043153316 0.18728057 -0.014852356 -0.047324233 -0.110761404 -0.14892533 0.057185534 0.15522423
0.22351664 9.994146e-05 0.17998226 -0.20855369 0.018060746 -0.04308078 0.1889252 0.01894514
0.11599946 0.1865305 0.073567435 0.034978755 -0.057290923 -0.12091759 -0.14187363 -0.1713126
0.11362256 0.15623167 0.18223707 0.037230846 0.037253812 -0.03511312 0.008053019 -0.12277283
0.18147103 0.11713242 -0.04780103 -0.1958417 0.14854102 -0.13243999 0.035151284 0.05925492
-0.10686671 -0.097277604 0.019740403 -0.017219545 0.012064982 0.07925008 -0.029675249 -0.1301158
-0.06983509 0.004324417 0.12701556 -0.11939026 -0.16246057 0.122929156 0.0121609885 -0.110764794
-0.031376593 0.15361795 0.22141454 -0.080022715 0.18280496 0.11955427 0.11505142 -0.13512844
0.08009069 -0.111162744 0.09624825 -0.21717666 -0.114398584 0.14735667 -0.010636994 0.0027796186
0.036501236 0.04054817 0.03172617 0.17486924 -0.06734866 -0.035962388 -0.1536846 -0.040176217
-0.022262244 0.06091201 0.031576212 0.11219928 0.08305408 -0.14059404 -0.013119582 0.097761706
-0.015012621 0.059317157 -0.19476032 -0.14257565 -0.04195439 0.020155095 0.16592656 -0.09133128
-0.07465532 0.032864917 0.08522214 -0.13460238 -0.12548396 -0.119331315 0.06871082 -0.20700411

lstm.bias_ih_l0_reverse f4 [128]
00000000: 0de4 303e d259 ab3d a92b be3d 9ae4 1d3e
00000010: d579 463e f883 063e 9872 033e 1650 b3bd
00000020: c025 7fbd f4b7 d13c 1760 1bbc 6bef 29bd
00000030: bd30 d63d 0902 193e 07d1 5bbc 9567 433e
00000040: ff0d dcbd 3174 50b8 cb49 7ebc 3636 a23c
00000050: f9b8 213e 4dab 373b fd89 61bd fd0c 8dbc
00000060: eedf e4bd 885c 8d3c d33f 823d e914 da3d
00000070: b6df 88bd 72b8 8e3d 2961 8b3e d278 77bd
00000080: d0e4 073d d9bf 0cbe bdc0 073e 26c0 233e
00000090: 2e81 c93d 7c7f c6bd 2b86 283e 2b06 843d
000000a0: 44ea 93bd 6cfc 073e 7cdb 10be c555 e3bd
000000b0: 7267 633d 00a1 153e 197e 393c df0e 55bc
000000c0: a630 273d da24 343e 79ae cebc dff6 c43d
000000d0: e0a0 693e a099 f0bc 53a4 223d 8e45 bbbd
000000e0: b631 f53d 2f10 563e 27ac 43bd 9bae 9cbd
000000f0: 381c 96bc 5d58 b43d 2f75 67bd d231 663e
00000100: 7365 3f3e d7dc d6bd 3f6d 58bd 5281 5bbd
00000110: ed42 df3c e95e 12be 5644 07be 6339 2abe
00000120: ae64 a4bd 113b 21be 2cab b83d fe79 be3d
00000130: e25f 2dbe f086 e63c ef1c 253e 6abc c03d
00000140: a2b8 2fbe 9b6d 7e3c a135 98bd cc99 c13d
00000150: 4f89 973d c0d0 bcbc 2925 883d 588b d7bc
00000160: ece5 a93d a963 1bbd 25b3 c7bd 2b43 0abe
00000170: c148 a3bd dc87 e6bd 63ad 873c f4a9 19be
00000180: 562c 903c cd60 02be 416e 9c3d a2af 963d
00000190: a87a 1f3e ee44 82bd 3f6f 303e d37a f63c
000001a0: 321c b03d 88ef 8eb7 1b4c 58bd 065e 343e
000001b0: a6cc 1dbe adf0 f63c 57d8 d3bd 2f42 633c
000001c0: bb48 333e dd8f f03d a97c d13d 5fb8 76bc
000001d0: 74bb 32bd a81c 273d 176e 803d cbd2 e23d
000001e0: e1c2 b53b 18d0 863e 412d d6bd 3b6b 733d
000001f0: 6b43 173e b9c2 01bd ac13 093e d26e f8bc
0.17274494 0.08366741 0.09285671 0.15419236 0.19382413 0.1313628 0.12836683 -0.087555096
-0.06229186 0.025600411 -0.009483359 -0.041488092 0.10458515 0.14942183 -0.013416535 0.19082482
-0.10744857 -4.9699276e-05 -0.015520523 0.01980124 0.15793218 0.0028025687 -0.055063237 -0.017218107
-0.11175524 0.017256036 0.0635983 0.106485195 -0.066832945 0.06968774 0.27222565 -0.060417958
0.033177197 -0.13745059 0.13257118 0.15991268 0.09839092 -0.096922845 0.16457431 0.06446489
-0.07222417 0.13279885 -0.14146227 -0.111003436 0.055518575 0.14612198 0.011321568 -0.013004034
0.04081788 0.17592183 -0.02522968 0.096173994 0.22815275 -0.02937013 0.039707493 -0.09144126
0.11972372 0.20904611 -0.0477716 -0.07650491 -0.018324003 0.088059165 -0.05650824 0.22479942
0.18691044 -0.104913406 -0.05283856 -0.053590126 0.027253592 -0.14294018 -0.13209662 -0.16623454
-0.080270156 -0.15745188 0.090170234 0.09300612 -0.16931108 0.028140515 0.16124319 0.09410937
-0.17160276 0.015529062 -0.07432104 0.094531626 0.073992364 -0.023048759 0.06647713 -0.026311561
0.08295807 -0.03793684 -0.09750966 -0.13502185 -0.07972861 -0.11256382 0.01656217 -0.15006238
0.017599266 -0.12732239 0.07638217 0.07357718 0.15574133 -0.063608035 0.17229937 0.030087864
0.08599128 -1.703926e-05 -0.052806955 0.17613992 -0.15410098 0.03014406 -0.10343998 0.01387076
0.17508213 0.1174619 0.10228855 -0.015058606 -0.0436358 0.040798813 0.06270998 0.11075362
0.005546913 0.26330638 -0.1045785 0.059428435 0.14771812 -0.031679843 0.1338641 -0.03032628

lstm.bias_hh_l0_reverse f4 [128]
00000000: ced9 81bd 9bbc c93d b843 04be 9f05 9fbc
00000010: 65c1 4cbc 7563 483e fd99 2e3e d342 1c3d
00000020: bf9f 9d3d 0fd1 6f3d 1e18 4c3e 1bde f9bd
00000030: 7df6 a23d 418a b6bd d509 91bc eab3 6e3c
00000040: 816f 4f3e 4155 f33b 45e8 a6bd cdf0 043e
00000050: 4d59 a6bd f560 343e 80a0 9abd b6f6 1b3e
00000060: 355f dd3b 6884 d63d 25cf 04bd eea7 403e
00000070: 3b59 093d 2996 323e c820 4b3c eb45 a03c
00000080: e96d 0bbd c157 9e3b ea86 cbbd e0c8 ca3d
00000090: bd09 093e 370b 0fbd 1ef9 51bd 565c 7bbd
000000a0: 9871 ff3d 8018 1f3e b716 5fbd 3f71 c03d
000000b0: 9952 213e 4ede 673d a2a3 a23c 169b 0abd
000000c0: 594f 233e afa3 4cbd f2a3 8f3e 3f0a 41bc
000000d0: c565 0e3e 6187 343d b17a c83d 07f9 e43d
000000e0: 1c17 09bc 8ba7 a03d 7357 013e 9619 193e
000000f0: 087c 85bd 1d7d 073d 4968 e9bc 28d4 6e3e
00000100: df55 0cbe 928a 8fbc 9ffb 1c3e 566c 123e
00000110: 6e37 cb3b acec d9bd 7ffc b43d 3149 d73d
00000120: 80cd 003e 0be1 233e 0dc4 a63d b5d0 20bd
00000130: 9ef0 21be ea7f 38be 93f0 1fbe 0797 cebd
00000140: a2f6 703c 17cf cf3d e820 163e 5fe1 b7bd
00000150: c690 363e afc0 a83d 24df 9b3d bdeb 0ebd
00000160: a26c 0a3e b32f f03d 444a 263e b8e4 69bd
00000170: e83a 8d3c 5b00 e83d 8532 c63d fcd8 213d
00000180: bb7c 853d 58aa f0bd 2a66 e33d 196b 243e
00000190: ce11 a83d 1701 8abd 243a 793c 98c4 d7bc
000001a0: 206f 813d 51bb 4f3e a623 abb9 aa45 103e
000001b0: 16a2 d2ba ef46 aabd 3a79 8d3d 779c d43c
000001c0: 7af1 533e 8154 d8bb 9879 583e 9973 edbd
000001d0: b0da d23c 8daa e63d 510d f5bc 6a65 ecbd
000001e0: 24a5 da3d f1c8 4c3d 1ab8 ac3d 94e0 01bd
000001f0: 131c cdbd aec1 113e d78c 6b3e acb5 7abd
-0.06340371 0.09850427 -0.12916458 -0.01941186 -0.012497281 0.1956919 0.1705093 0.038149666
0.07696485 0.058548983 0.19931075 -0.122005664 0.0795717 -0.089130886 -0.017704884 0.014569262
0.20257379 0.0074259345 -0.08149771 0.12982483 -0.081225015 0.17615111 -0.07550144 0.15230832
0.0067557343 0.10474473 -0.03242411 0.1881406 0.033532362 0.17440094 0.012397952 0.01956459
-0.034040365 0.0048322384 -0.09937842 0.09901595 0.13382621 -0.034922805 -0.051262967 -0.061367355
0.12472838 0.1553669 -0.054465022 0.093966 0.15754165 0.05660849 0.019853417 -0.033839308
0.15948237 -0.04996079 0.28054768 -0.011782228 0.1390601 0.04407442 0.097890265 0.11180311
-0.008367326 0.07844456 0.12631015 0.14951167 -0.06517798 0.0330783 -0.02849211 0.23323119
-0.13704632 -0.01752213 0.15330361 0.1429914 0.006201676 -0.10640845 0.08837222 0.10512007
0.12578392 0.16003816 0.081428625 -0.03926154 -0.15814444 -0.18017545 -0.15619116 -0.100874
0.014707239 0.10146921 0.1466099 -0.08978533 0.17828664 0.082398765 0.0761092 -0.034892786
0.13518003 0.11727848 0.16239268 -0.05710289 0.017240003 0.11328193 0.096776046 0.039513573
0.06517931 -0.117512405 0.111034706 0.1605648 0.08206521 -0.06738489 0.015211616 -0.02633886
0.063200235 0.202863 -0.00032642222 0.14089075 -0.0016070034 -0.08314311 0.06907888 0.025953515
0.20697585 -0.0066018705 0.21140134 -0.11594314 0.025739044 0.11262999 -0.029913576 -0.11542781
0.10676029 0.04999632 0.08433552 -0.031708315 -0.1001512 0.14234039 0.23002945 -0.061208412

lstm.weight_ih_l1 f4 [128, 64]
00000000: 3326 af3d 0ecd 82ba 56ea 933d f45a b23d
00000010: 8fc5 fcbd 252e 153e b68e c4bd 63b4 c5bd
00000020: c0e3 dc3d eee6 b5bc 4cc9 4abd 57c4 ec3d
00000030: 4730 16be 0789 31be cc4a f23b a2a8 373e
00000040: 7e16 9ebd 23fd 433e 49dc 153e d042 943d
00000050: 0eb0 803d 82d4 9dbd d5df 453d 2d34 b13d
00000060: b81e b0bd 0636 bf3d bed7 b2bd 5bb2 e0bd
00000070: a8b0 2dbe da86 25be bf70 153d 1939 393e
00000080: 29f4 4c3d 1a8b 673c cdbf 143e 0a64 ea3d
00000090: e2ee debd 9f0d 16bc 48da 12be ec8f fdbc
000000a0: b7a8 debd 8967 3bbe 12a4 103e 7320 cd3b
000000b0: 9904 99bd 6f6a 8ebd be97 b1bc b993 903d
000000c0: c7ed 02bc eee3 bebd 371b 753d fdd4 c13d
000000d0: 4610 14be 01aa d93d 7206 cbbd 49cc c83d
000000e0: 620f 3ebe 72d5 9dbb d57e aabc 7d1c 09be
000000f0: 6e47 483d e1c6 283e 6874 0abe a7db e7bd
00000100: 3607 29be 0642 123d 3172 9cbd 0778 403d
00000110: 53ae 383d aeb6 10be b730 613d a24b bfbd
00000120: 034c 13be 1e3a 55bd 1e8b c4bd 89e4 cd3d
00000130: a406 43bd 2425 6e3c 83cf 92bc ea16 323e
00000140: c49b 11be d341 13be 0c1d d13d 61a0 17bd
00000150: 0fba efbd 1ea9 993d 9b6d 00bd 9db8 e7bd
00000160: ecce 25be 3200 34bc c2cd d33d cd68 2d3c
00000170: dc34 33be 1ff3 c83d 9272 fbbc bc4c 2f3e
00000180: 723a 95bd 63ce 0b3e 0083 053e 7911 80bd
00000190: 085b 24be 11e3 1b3b c1d2 1dbe 17f0 393e
000001a0: 830d 18be 4971 943d 2bc5 ec3d ce1c fabd
000001b0: e9e3 2fbd 9c1d 08be 39b0 af3d 3ce6 d13d
000001c0: cc61 413e 325f 3dbd 1d24 33be c4f0 233e
000001d0: 4b13 ee3d 1607 a6bd a570 88bd f242 423d
000001e0: 630f dd3d 2f56 233c 1c2e 09be 8276 6bbd
000001f0: 37c5 233e a76b 03bd d206 883c 0d3a 8a3d
00000200: 958e c4bb 4369 6a3b b8fb 04be 5355 1d3e
00000210: ba3e 0e3c 5b06 fa3d 2580 173e b8e2 dc3d
00000220: a6b8 ddbd 3430 053d a2fa 023e a827 893d
00000230: e3cc 07be dd70 26be 6c35 49bc 0a05 053b
00000240: 61f5 8f3d 0ffa d1bd 4e0c 323d 27a6 3cbd
00000250: e33b 93bc 7ba7 29be 5c4e 3cbd f724 d939
00000260: 9c93 15be 87be 163e bfa2 bebd 4fa6 8bbd
00000270: d066 84bd 468f 043e 7aa6 d1bd 9492 27bd
00000280: 390c 693d 4fe9 4d3d 8dc9 27be 70ed fdbd
00000290: 0b3f a1bd 31e2 b8bc 8764 a4bd 84c0 2abe
000002a0: 3386 edbd e545 84bd c519 563d 82c8 a83d
000002b0: 5ec7 33be 6981 49bc 1706 1b3d 4807 74bc
000002c0: 998a e6bd 5aea f03d 02b4 cdbd 322c 4a3d
000002d0: b811 b6bc 5ed3 043e a9e0 09be ed8d 53bd
000002e0: ac01 ca3d 570d 4a3d ba70 9bbd 3adc c63c
000002f0: 9bc8 0bbe bac3 abbd e3d7 61bc a0d6 e73d
00000300: e1f0 f0bd 91fc 213e cd8a 9a3d 7550 70bd
00000310: c407 d4bd d09e ed3d 1859 7cbd e71d 2c3d
00000320: 58a6 48bd 8055 1cbe 6fd3 a5bd 6167 5d3d
00000330: a577 01be 0a26 f13d 45a8 89b8 e657 e6bd
00000340: a254 d43d 299e f6bc c212 58bd 98df f2bd
00000350: d1ff ef3d 74a8 c43d 0ee5 673d 8aca 12be
00000360: 595d be3d 5d33 ecbd 748a a63d 8a13 73bd
00000370: 8f8f e7bd bfde 0d3e 1d36 7b3c b5db eabd
00000380: a0ee 19be 82cb c43d 8a73 0fbd ecb4 c13d
00000390: 327e cdbb a740 263e ccc8 45bd e097 27be
000003a0: bf99 293e 29b3 873c 7072 fa3d 9473 3abe
000003b0: 7ced 12be 2b97 88bd 1c5d a5bd c868 bb3d
000003c0: a0b2 ecbd b828 0b3e c3fc debd 3401 07be
000003d0: 641b 5f3d 40cf 193e d7b0 213e 78a3 14bb
000003e0: cfd8 d43d 1b23 b7bd 2729 a43d a815 88bc
000003f0: b207 143e dfd9 a6bd c5ae 8fbc ef7a 333e
0.08552208 -0.0009979324 0.072224304 0.08708754 -0.12342369 0.14568384 -0.095975325 -0.09653547
0.10785627 -0.022204842 -0.049508378 0.11560886 -0.14666854 -0.17337428 0.0073941704 0.17935422
-0.07719134 0.19139533 0.14634813 0.07239306 0.0628358 -0.07706548 0.048309166 0.0865253
-0.08599609 0.09336476 -0.08732556 -0.109715186 -0.1696192 -0.16164723 0.036484476 0.18088187
0.050037537 0.0141322855 0.14526291 0.11444862 -0.10885407 -0.009158521 -0.1434108 -0.030952416
-0.108720236 -0.18301214 0.14125088 0.0062599718 -0.0747158 -0.06953894 -0.021678802 0.07059426
-0.007991261 -0.09320818 0.059840407 0.094644524 -0.14459333 0.10628129 -0.09913339 0.09804589
-0.18560556 -0.0048167044 -0.020812431 -0.13389774 0.048896246 0.16482116 -0.13520968 -0.11321192
-0.16506657 0.035707496 -0.07638968 0.046989467 0.045088124 -0.14132187 0.0549781 -0.09340598
-0.14384465 -0.052057378 -0.09596847 0.10053355 -0.047613755 0.014535222 -0.017921215 0.17391554
-0.14219576 -0.14380579 0.102106184 -0.037018184 -0.1170541 0.0750296 -0.031354528 -0.11314509
-0.16192216 -0.010986375 0.103419796 0.0105840685 -0.17500633 0.09811997 -0.03069428 0.17119116
-0.07286538 0.13652949 0.13038254 -0.06253333 -0.1605035 0.0023786465 -0.15412427 0.18157993
-0.14848904 0.0724817 0.11561044 -0.12212525 -0.04294196 -0.13292545 0.08578534 0.10248992
0.18884963 -0.046233363 -0.17494245 0.16009814 0.116247736 -0.0810682 -0.0666211 0.047427125
0.107939504 0.009969278 -0.13396496 -0.057486065 0.159932 -0.032085087 0.016604815 0.067493536
-0.0059984424 0.0035768307 -0.12986648 0.1536458 0.008681947 0.122082435 0.14794977 0.10785431
-0.108262345 0.032516673 0.12790921 0.06697017 -0.13261752 -0.16253991 -0.012280803 0.0020297193
0.07029224 -0.10252773 0.043468766 -0.046056893 -0.017972892 -0.16567795 -0.045973167 0.00041417006
-0.1460709 0.14721118 -0.09308385 -0.0681883 -0.064649224 0.1294528 -0.10236831 -0.040911272
0.056896422 0.05027133 -0.1638548 -0.12398803 -0.078733526 -0.022568794 -0.080269866 -0.16675001
-0.11597862 -0.06458644 0.05227067 0.08241369 -0.17556521 -0.01229892 0.037847605 -0.014894314
-0.11256904 0.11763449 -0.100440994 0.049358554 -0.022225246 0.12971255 -0.13464607 -0.051649023
0.098636 0.049329128 -0.0758986 0.024274934 -0.13650744 -0.08386941 -0.013784382 0.11320233
-0.11764694 0.15819003 0.075460054 -0.05867048 -0.10353044 0.11602557 -0.061608404 0.042020705
-0.048986763 -0.1526699 -0.080969684 0.054053668 -0.12643297 0.117748335 -6.564012e-05 -0.11247234
0.10367705 -0.030104714 -0.052752264 -0.118590534 0.11718715 0.096024424 0.056614928 -0.14335075
0.092951484 -0.11533234 0.081318766 -0.059344806 -0.113066785 0.13854502 0.015332726 -0.11467687
-0.15032434 0.096091285 -0.035022296 0.09458336 -0.006271147 0.162356 -0.048287198 -0.1636653
0.16562556 0.016564922 0.122288585 -0.18208152 -0.14348406 -0.06669458 -0.080744 0.09150845
-0.115575075 0.13589752 -0.10888054 -0.13184053 0.05446948 0.15020466 0.15790115 -0.0022680443
0.103929155 -0.08942243 0.08015662 -0.016611889 0.1445606 -0.08147024 -0.017539391 0.17527364

lstm.weight_hh_l1 f4 [128, 32]
00000000: 47bb c2bb e3c7 7e3c 7fcc ae3d cffd 96bd
00000010: 7b04 05be cbcb e53d d16a 37bc 2134 63bd
00000020: 96a7 ac3d 5243 963d 4155 2abe a4ec 0a3e
00000030: 0efe c93d 59db af3c 5ba7 1e3e 31b2 db3d
00000040: 7445 2ebe 6c5c 1b3e d0d5 b3bd 58c4 edbd
00000050: 59f4 bc3c 3bb6 b13d ca5b 99bd 42bb ebbc
00000060: b452 05be 0789 23bd 7e60 2dbe 02df 113e
00000070: e3ae fdbd a9dc 133e 9d31 d9bd 6720 9d3d
00000080: 847a d73c 2bdd 983d 4c7c bb3d 8e5d 593b
00000090: e9e3 bb3d 6c61 033e 02b5 0bbe 9d73 2c3e
000000a0: 510f fabd 7531 50bb df02 823d 0bb2 033e
000000b0: 1ab7 2e3e 9125 fabd b786 a8bd 1ff1 133e
000000c0: 4340 073e c348 273d 4191 943d 44e9 01be
000000d0: b6d8 e0bd 43c2 943c 46f5 adb9 0ebb 92bd
000000e0: fc4e b1bd e62a 333e 53dc 90bd 1dc6 f9bd
000000f0: d09a e93d d010 a0bd 1539 3c3c 8ec8 80bd
00000100: 8a2c 113e 83e3 0cbe 926f 07bc 99a0 32be
00000110: ff9e 433e ae74 253e a8aa 0d3d 9618 0ebe
00000120: dcfb 063d 2152 ba3c 213b 193b 5c82 2a3e
00000130: 2c0a e53d c839 3fbe 5b7b e83c 99a4 843d
00000140: cf92 483d 4035 833d 983d 333e 4fdf 41bd
00000150: bb1a d2bd 9e05 59bd e465 d4bc 3095 d1bd
00000160: 041a 3a3e 0c91 20be 1577 823d a48b 043e
00000170: 0f8f 04be 943e 743b 200b a0bd ab4e 1abe
00000180: 0771 3b3e 9904 a53b f49a c33d 15bc 27be
00000190: 00c5 b53d 4eec adbd 18db 813d c617 0dbd
000001a0: 8ca3 23ba 7dcc bc3d d1f0 c53d a1a1 2e3d
000001b0: b867 993d 16bc d53d 5aa5 023e c947 04be
000001c0: a3c9 e0bd cc92 193e 083d 32be a0f1 f0bd
000001d0: 0c71 b2bc d531 c5bd 4e9c afbd fd96 4fbd
000001e0: 61ad 1cbe 5477 45bc 2e6f a4bd 08ce a2bd
000001f0: 1596 4f3d 5fbc dabd 6303 0f3e 7b40 13be
00000200: eb19 c73d c361 d93d 8160 0b3d 45a5 243e
00000210: a592 3fbe 76ee 37be fd74 11be 0c0c 00be
00000220: 6c1b 32bd 6519 e63d 6c21 843d 50a0 56bc
00000230: 418b 7ebd 065c bf3d 34cd 053e 4a1c ab3d
00000240: 2033 4e3d 60db 16be 9887 c33d cbf1 b1bd
00000250: 0aad eabd 24dd 0d3d 9b26 c8bd 56e6 1cbe
00000260: b997 dbbd 1a2d 293d 1b75 183e 94c9 f73d
00000270: b7db a3bd c324 053e 0592 01be 8cd1 dcbd
00000280: e0a0 17bd 36b9 173e 7c60 13bd 8aea c03d
00000290: 99f5 cb3d 2a5c 233e 0029 b4bd f800 2b3d
000002a0: fadf 8bbd 1dd6 e7bb 622e f1bd 0fbf 283e
000002b0: e947 ed3b 8f1b c0bb 7323 023e 6bea a7bd
000002c0: cdac 133e 93ae efbd 8ec6 57bd b613 e13d
000002d0: ceb7 3cbc f502 593d 83c3 84bd 821a 8a3b
000002e0: a5c0 3abc 4dab 15be 82c1 2e3d f0e7 173e
000002f0: 7dbd 2a3e 7aed 0a3e f65d a73d 2cab e5bd
00000300: 10c0 163e 613f debc f153 93bd d533 37bd
00000310: 6942 e4bd 9b7f 023e f392 663d 3f75 4c3e
00000320: c689 aebd 779e 9fbb 8bfe 8d3b 9d61 b03d
00000330: d931 64bc 0083 ac3d 6bed ffbd 5b03 13be
00000340: 2e6e 15bd 10b7 57be 081a 54be 3903 8e3d
00000350: 4123 7f3b ed02 aabd 81e3 febd 6f14 0d3e
00000360: adf9 22be cc28 453e 8d5a 983d 672f 1d3d
00000370: 8ff1 c33d a387 48bd c536 1f3e ecd3 d03d
00000380: 348d a2bc fbef 0c3e 3565 26bd 7016 f03d
00000390: 12ec ca3c c0a1 dabd c851 05bd 536f 35be
000003a0: 1616 2f3e fbff a53d c763 e9bd c095 1cbc
000003b0: 2f52 87bd bd50 6d3d f242 783b cdf6 313d
000003c0: 61be a13d 9af1 1d3d ada8 12be f718 e0bc
000003d0: 8cfc 33bd 68ce 153c 8fff 31bd a0ac a7bd
000003e0: 644b b7bd 1736 9a3d 1f9a a53d 7e9e d6bd
000003f0: 4798 783d 4287 0abe eca7 0f3e 91ce 5e3d
-0.0059427354 0.015550586 0.08535098 -0.07372629 -0.1298999 0.11220511 -0.011194901 -0.055469636
0.08430402 0.07337059 -0.16634084 0.13566834 0.0986291 0.021466898 0.15493529 0.10727347
-0.17018682 0.15171975 -0.08781016 -0.11609715 0.023065733 0.08677336 -0.074882105 -0.028775815
-0.1301983 -0.0399256 -0.1693134 0.14245227 -0.123868726 0.14439644 -0.10605166 0.07672196
0.026303537 0.074640594 0.09154567 0.0033167335 0.0917433 0.12830132 -0.13643268 0.16840978
-0.122099526 -0.003176776 0.06348204 0.12860887 0.17062035 -0.122141965 -0.0822882 0.14447449
0.13208108 0.040840875 0.072542675 -0.1268664 -0.10978834 0.018159037 -0.00033179874 -0.07164584
-0.08657643 0.17496833 -0.070732735 -0.1219599 0.11406481 -0.07815707 0.011488219 -0.06288253
0.14177147 -0.13758664 -0.0082663465 -0.17444076 0.19103621 0.16157791 0.03458658 -0.13876566
0.032955036 0.02274424 0.002338119 0.1665129 0.11183581 -0.18674386 0.028379133 0.06476707
0.048968133 0.06406641 0.17503965 -0.047332104 -0.10259005 -0.052983873 -0.025927491 -0.102335334
0.18173987 -0.15680331 0.06370369 0.12943894 -0.12945198 0.0037268745 -0.07814622 -0.15069072
0.18304835 0.0050359485 0.09551039 -0.16380341 0.088754654 -0.08492337 0.06340617 -0.0344465
-0.0006242327 0.092186905 0.09665073 0.04263461 0.07490486 0.10436265 0.12758389 -0.12918009
-0.10975959 0.14997405 -0.17406094 -0.11764836 -0.02178242 -0.09628645 -0.08574735 -0.050681103
-0.15300514 -0.012052376 -0.08029018 -0.079494536 0.05068024 -0.1068046 0.13966136 -0.14380066
0.0972174 0.1061435 0.03402758 0.1607867 -0.18708284 -0.1796206 -0.14204784 -0.12504596
-0.043483183 0.11235312 0.06451687 -0.013099745 -0.06214452 0.09343724 0.1306656 0.08355005
0.050341725 -0.14732122 0.09547347 -0.086886965 -0.11458786 0.034634724 -0.097729884 -0.15322241
-0.10722298 0.041302778 0.14888422 0.12098995 -0.08000892 0.13002305 -0.12653358 -0.107821554
-0.037018657 0.14816746 -0.035980687 0.09419735 0.099589534 0.15953127 -0.08796883 0.04174897
-0.068298295 -0.007075085 -0.11776425 0.16479133 0.0072412384 -0.0058626602 0.12708835 -0.081990086
0.14421387 -0.11703219 -0.05267959 0.10990088 -0.011518432 0.052981336 -0.064826034 0.0042145858
-0.011398469 -0.14616127 0.042665012 0.14834571 0.16673847 0.13567153 0.081722185 -0.11214289
0.14721704 -0.02712983 -0.07193745 -0.044727165 -0.11145479 0.1274399 0.056292485 0.19966601
-0.08522372 -0.0048711854 0.0043333224 0.08612368 -0.0139279 0.08423424 -0.12496456 -0.14356749
-0.03648203 -0.21065927 -0.20713055 0.069342084 0.0038930925 -0.08301339 -0.12445737 0.13777326
-0.15915556 0.19253844 0.07439146 0.038375285 0.09567558 -0.04895748 0.15548237 0.10196671
-0.019842722 0.1376342 -0.040623862 0.117230296 0.02477077 -0.106753826 -0.032548696 -0.17718248
0.17098269 0.08105465 -0.11395984 -0.009557188 -0.06607472 0.057938326 0.00378817 0.04344826
0.0789764 0.038560487 -0.14322157 -0.027355654 -0.04394202 0.009143449 -0.04345661 -0.081872225
-0.089499265 0.07529848 0.08086037 -0.10479449 0.060692098 -0.1352816 0.14028901 0.054396216
