models/cyberbullying_lstm.pt (torch, 190179 bytes, 18 tensors)

lstm.weight_ih_l0 f4 [128, 50]
-0.023908224 -0.065254346 -0.5120161 -0.1692837 -0.026667524 0.33386055 -0.017361952 -0.3442556
0.018425545 -0.0016466198 0.02609241 -0.34557813 0.67892444 -0.5952729 0.072216846 -0.7555139
-0.37893105 0.078704685 -0.13631824 -0.11854844 0.1463584 0.1952447 -0.06654875 0.17114098
-0.15215579 -0.12709025 0.027728122 -0.16726267 -0.059284694 0.033738807 -0.20315637 -0.0087639745
-0.106335685 0.07144257 0.009600609 0.03339452 0.0063532502 -0.66455 -0.0934027 0.078073464
0.14808416 0.29361892 0.0001610702 -0.112262204 0.37403506 0.0851968 0.06937707 -0.17183189
-0.11974551 -0.1395648 -0.5588066 0.034543946 -0.23921911 -0.61642337 -0.16003554 0.16057056
0.14134504 -0.28832775 -0.41334698 0.0152166365 0.01723714 0.2851374 0.35119864 -0.33732134
-0.4093356 -0.104909375 -0.014529348 -0.08227256 0.23744108 0.2892938 -0.4540648 -0.10747423
-0.21844195 0.13986538 0.249718 -0.22691943 -0.03872089 -0.038981277 0.24312288 -0.080626324
-0.11065881 0.2830883 -0.014310366 -0.24808188 -0.13081032 -0.4197245 -0.43060747 -0.19566219
0.099502414 0.12447487 -0.062023725 0.26467142 0.13938716 0.15953341 -0.22270167 0.21939492
0.019128874 0.14184779 0.3845111 0.37060827 -0.63190126 -0.24103998 -0.072365984 -0.014797534
-0.018190473 -0.1795862 0.08064782 0.015409434 -0.22554888 0.023570023 0.19274728 -0.21153979
0.40547663 -0.09137961 -0.12711859 -0.4670987 0.10314731 0.23560384 -0.4283446 0.22460885
-0.024640705 -0.13817732 -0.54080206 0.35642767 -0.001407334 -0.035659343 -0.6156827 -0.44066668
-0.11957257 0.009898906 -0.3912683 0.21591742 -0.09809563 0.16382436 0.22186562 0.1139955
-0.073539615 -0.23886912 -0.32096764 -0.50582975 -0.033664003 -0.12990741 0.03645576 -0.10825599
0.42735693 0.07200689 0.14148787 -0.34256056 0.21977057 0.06533964 -0.094891354 -0.15051422
-0.041764982 -0.23744996 -0.03742853 -0.09180062 -0.23673551 -0.14807609 0.22982375 -0.049566556
-0.2938379 -0.22325526 -0.08669757 -0.13648093 -0.23705277 -0.10898057 -0.41725773 -0.37486306
-0.5231 0.030941993 -0.012055715 0.2078811 -0.113023415 -0.17140307 -0.0540198 -0.092506975
0.35089415 -0.007310611 -0.077518806 0.032948766 -0.1862715 -0.12366104 0.27047792 0.45968145
-0.18574733 0.10202635 0.05485292 -0.2049807 -0.03213727 0.37697214 0.20358753 0.5174523
-0.2551369 -0.078227304 0.23318067 0.05390311 -0.23504066 -0.32350442 -0.17018019 -0.11846212
0.038167346 -0.20194769 0.0066761174 -0.33874315 0.28671652 0.41227326 -0.069635965 -0.2502843
0.22234163 -0.055047683 -0.16938618 -0.10992582 -0.073040634 -0.09019541 -0.035603985 -0.08582741
-0.20686446 -0.2869154 0.4790794 0.24842592 -0.09117735 0.6122295 0.04870458 -0.0049146395
-0.1729126 -0.016164508 0.6696782 -0.057453714 -0.09958431 0.045333922 -0.09705109 0.18460196
0.34277537 0.1065221 0.18499656 -0.15350653 0.072833754 -0.051748987 -0.10378165 -0.26396447
-0.221671 -0.021822324 0.36801127 -0.3983241 0.68525237 -0.26018798 -0.2690421 -0.28462428
0.033278517 0.3377251 -0.27195013 -0.2630708 0.3196857 -0.09637085 0.06501556 0.12366386
00000000: 2edb c3bc 12a4 85bd 7d13 03bf b558 2dbe
00000010: da75 dabc c5ef aa3e a73a 8ebc 4542 b0be
00000020: 2bf1 963c 64d3 d7ba c0bf d53c 9eef b0be
00000030: fecd 2d3f ce63 18bf 6de6 933d 5c69 41bf
00000040: 4003 c2be ec2f a13d 0297 0bbe 86c9 f2bd
00000050: fade 153e 3aee 473e b64a 88bd 953f 2f3e
00000060: bace 1bbe f223 02be 1626 e33c e846 2bbe
00000070: 82d4 72bd b431 0a3d 3908 50be c696 0fbc
00000080: 86c6 d9bd 7b50 923d df4b 1d3c b1c8 083d
00000090: ed2e d03b f31f 2abf ea49 bfbd fbe4 9f3d
000000a0: 60a3 173e 3855 963e f4e4 2839 bae9 e5bd
000000b0: 8681 bf3e a97b ae3d 9115 8e3d b3f4 2fbe
000000c0: 223d f5bd 13ea 0ebe f30d 0fbf f47d 0d3d
000000d0: dbf5 74be eccd 1dbf 5be0 23be 9c6c 243e
000000e0: c1bc 103e b29f 93be 37a2 d3be 334f 793c
000000f0: e734 8d3c 87fd 913e 4fd0 b33e 62b5 acbe
00000100: 7094 d1be bada d6bd 810c 6ebc 847e a8bd
00000110: c123 733e 511e 943e 2e7b e8be 731b dcbd
00000120: 3faf 5fbe df38 0f3e 13b6 7f3e 915d 68be
00000130: cc99 1ebd d5aa 1fbd 34f5 783e 6a1f a5bd
00000140: 16a1 e2bd f3f0 903e 0676 6abc 2d09 7ebe
00000150: 24f3 05be 21e6 d6be 9578 dcbe ab5b 48be
00000160: ecc7 cb3d aeec fe3d 970c 7ebd 0383 873e
00000170: 82bb 0e3e ba5c 233e e80b 64be 10a9 603e
00000180: 28b4 9c3c 8c40 113e a4de c43e 5ec0 bd3e
00000190: 48c4 21bf 2fd3 76be 9e34 94bd 5b71 72bc
000001a0: 3004 95bc 72e5 37be af2a a53d da77 7c3c
000001b0: 49f6 66be ec15 c13c 8b5f 453e e39d 58be
000001c0: a29a cf3e 3c25 bbbd 602b 02be 9027 efbe
000001d0: e63e d33d 2242 713e fc4f dbbe ddff 653e
000001e0: 4edb c9bc 5b7e 0dbe 0172 0abf b07d b63e
000001f0: 4b76 b8ba 880f 12bd 629d 1dbf 109f e1be
00000200: 77e2 f4bd 052f 223c 5254 c8be 7519 5d3e
00000210: 5de6 c8bd 93c1 273e be30 633e 7976 e93d
00000220: f09b 96bd 1b9a 74be df55 a4be 0f7e 01bf
00000230: 44e3 09bd 7306 05be a352 153d 51b5 ddbd
00000240: 87ce da3e 5978 933d 32e2 103e 1964 afbe
00000250: 890b 613e cad0 853d 6656 c2bd 6620 1abe
00000260: c211 2bbd 1526 73be a94e 19bd f701 bcbd
00000270: cb6a 72be 42a1 17be eb56 6b3e 4d06 4bbd
00000280: ec71 96be 079d 64be 7f8e b1bd a8c1 0bbe
00000290: f6bd 72be 3531 dfbd cea2 d5be 0dee bfbe
000002a0: e2e9 05bf 107a fd3c 5585 45bc c8de 543e
000002b0: d278 e7bd 4984 2fbe de43 5dbd 4c74 bdbd
000002c0: 66a8 b33e da8d efbb 2ec2 9ebd 49f5 063d
000002d0: f5bd 3ebe 0042 fdbd 157c 8a3e 5e5b eb3e
000002e0: 8c34 3ebe 31f3 d03d 75ad 603d 76e6 51be
000002f0: 5fa2 03bd 7e02 c13e 4079 503e c177 043f
00000300: 4ea1 82be a335 a0bd eac6 6e3e 82c9 5c3d
00000310: 80ae 70be 5fa2 a5be b743 2ebe 459c f2bd
00000320: 5d55 1c3d 60cb 4ebe 55c3 da3b be6f adbe
00000330: 82cc 923e 7b15 d33e 4d9d 8ebd 4425 80be
00000340: 86ad 633e ae79 61bd 9273 2dbe ca20 e1bd
00000350: 5496 95bd 5fb8 b8bd 7cd5 11bd 48c6 afbd
00000360: 47d4 53be 93e6 92be e549 f53e 5d63 7e3e
00000370: 31bb babd 13bb 1c3f 747e 473d fc0a a1bb
00000380: 0010 31be 6e6b 84bc 0870 2b3f 9654 6bbd
00000390: dcf2 cbbd 10b0 393d b9c2 c6bd 4c08 3d3e
000003a0: 4180 af3e 4228 da3d bd6f 3d3e d130 1dbe
000003b0: dd29 953d bff6 53bd 798b d4bd 5a26 87be
000003c0: b9fd 62be bbc4 b2bc f96b bc3e 23f1 cbbe
000003d0: b36c 2f3f 5c37 85be e3bf 89be 46ba 91be
000003e0: 0e4f 083d 4eea ac3e 0c3d 8bbe 37b1 86be
000003f0: d8ad a33e 155e c5bd e126 853d 7a43 fd3d

lstm.weight_hh_l0 f4 [128, 32]
-0.03187396 -0.09050573 -0.09412124 0.0046911035 -0.25099173 0.12757969 -0.1678848 0.037255667
0.22050028 -0.14653702 0.051216163 -0.05998675 0.035534367 0.3978006 -0.18579017 -0.10169706
-0.04378475 0.08135935 -0.0625098 0.13917632 0.23965056 0.056840688 0.13425831 0.04112171
0.042006344 0.1453525 0.25030455 -0.17957272 -0.14527903 -0.089428045 -0.21094677 0.21543613
-0.15617733 -0.17089285 -0.085948944 -0.118827015 -0.2542401 0.06326264 -0.11126726 -0.23213895
-0.11985119 -0.48012787 0.22898073 -0.030277783 0.33502215 -0.2734691 0.066640206 0.26224622
0.09842801 0.22859386 -0.25721842 -0.079552345 0.09918035 0.06756297 0.17629708 -0.10758458
0.012835901 -0.19153564 0.28974897 -0.10883716 -0.12583007 0.08295657 -0.012147793 0.5311048
0.010264723 0.023469742 -0.13916655 -0.31083736 -0.18564767 -0.22882424 0.020782232 -0.30390233
0.06796622 0.11480147 0.321169 0.02279284 -0.3332061 0.17939873 0.24547806 0.10348784
0.27473518 0.61527294 -0.28658438 -0.19542053 0.033850506 0.25416678 -0.041293096 0.45503536
0.26156005 -0.030122485 -0.15474176 0.0027088053 0.40278915 -0.1851823 -0.016179767 -0.019850034
0.028272297 0.24939542 0.11141948 0.06059558 -0.06730878 0.065361544 -0.21555747 -0.20354687
-0.05622958 -0.06122381 0.004859822 -0.32476288 -0.066902004 0.1667217 -0.08153556 0.026455216
-0.24395937 0.03012673 0.19950992 0.17329562 -0.20103787 -0.11308823 0.23753472 0.2531798
-0.26811218 -0.11965174 0.031392943 0.22641756 0.057360154 0.15987395 -0.09222249 0.21673936
0.18478954 -0.031069705 0.30348915 0.12542869 0.12640794 0.003553794 -0.016480679 0.1835366
0.07865415 0.17450288 -0.14922869 0.18849416 -0.14330538 -0.35401288 0.070114054 -0.30965975
-0.22472 -0.07274606 -0.104605004 0.07755738 -0.07712064 0.09688157 0.11559012 0.37010214
-0.21262829 0.08950883 0.035978686 -0.18900385 -0.13199158 0.28247425 -0.44327328 0.2046083
-0.21610618 0.29619867 0.10478096 0.22968796 -0.33255613 0.28240618 0.11834482 0.07059342
0.12712815 0.5515123 -0.23190431 -0.30073065 0.10536314 0.093711436 -0.020032903 -0.27009484
-0.4244205 -0.36023214 0.14261755 0.18501678 0.1942191 0.06406137 0.054841645 -0.12852213
-0.037879653 -0.32929406 0.058205225 0.042992383 -0.25009865 0.12389258 -0.042231604 -0.24501711
0.09633247 0.022216853 0.021659823 -0.0038335735 -0.05226948 -0.01999892 0.17902078 0.0017639772
0.0035675177 -0.14323074 0.17453991 0.09753572 -0.19181892 -0.2089014 -0.19902611 -0.025531039
0.16052231 0.011466503 -0.09444273 0.07657501 -0.099942155 0.19842492 -0.1645425 -0.15343158
-0.42923984 -0.085582145 -0.0759893 0.045233563 0.09284711 -0.07600874 -0.16535196 0.088289596
0.28006315 0.38860404 -0.04176577 -0.004062533 -0.5743117 0.19743285 -0.036307763 -0.20775029
0.7164942 0.112446524 0.13916367 -0.44507515 -0.047984283 0.26596075 0.32242912 -0.20382783
0.025276907 -0.06118217 -0.13517354 0.035091463 -0.028340861 0.017715825 0.21843508 0.00535529
0.1391526 -0.11492035 0.36890545 0.037936885 -0.50784534 -0.010095156 -0.11712305 -0.071205355
00000000: 458e 02bd 115b b9bd a3c2 c0bd d4b7 993b
00000010: fd81 80be 40a4 023e fee9 2bbe 6699 183d
00000020: d3ca 613e cd0d 16be 0ac8 513d abb4 75bd
00000030: 7c8c 113d 85ac cb3e c73f 3ebe 8c46 d0bd
00000040: a357 33bd bb9f a63d 2305 80bd 3d84 0e3e
00000050: f566 753e c8d1 683d 037b 093e 3d6f 283d
00000060: d80e 2c3d 49d7 143e eb27 803e e9e1 37be
00000070: 07c4 14be 0d26 b7bd 6e02 58be 4a9b 5c3e
00000080: f3ec 1fbe 89fe 2ebe 0006 b0bd 945b f3bd
00000090: c22b 82be d88f 813d 17e0 e3bd d5b5 6dbe
000000a0: 8a74 f5bd 52d3 f5be ed79 6a3e 1d09 f8bc
000000b0: 0688 ab3e 2404 8cbe a97a 883d 2345 863e
000000c0: a094 c93d 8214 6a3e 22b2 83be 57ec a2bd
000000d0: 111f cb3d 745e 8a3d 3987 343e 4e55 dcbd
000000e0: ac4d 523c eb21 44be fa59 943e 04e6 debd
000000f0: 99d9 00be 22e5 a93d 8907 47bc 7cf6 073f
00000100: 5e2d 283c 9e43 c03c ad81 0ebe 1326 9fbe
00000110: 6c1a 3ebe e750 6abe 803f aa3c 1699 9bbe
00000120: e031 8b3d 081d eb3d 4370 a43e 0db8 ba3c
00000130: fd99 aabe 4db4 373e 9a5e 7b3e 6ff1 d33d
00000140: 17aa 8c3e 8782 1d3f 30bb 92be 521c 48be
00000150: d4a6 0a3d 2622 823e f322 29bd 65fa e83e
00000160: 33eb 853e 6ec3 f6bc a074 1ebe 3686 313b
00000170: 613a ce3e 6ea0 3dbe 6e8b 84bc 8a9c a2bc
00000180: 4e9b e73c 8361 7f3e e52f e43d 1233 783d
00000190: 30d9 89bd 46dc 853d 19bb 5cbe 976e 50be
000001a0: fd50 66bd d1c5 7abd 243f 9f3b 5247 a6be
000001b0: eb03 89bd 18b9 2a3e 1efc a6bd 9cb8 d83c
000001c0: 7cd0 79be 55cc f63c 544c 4c3e 6874 313e
000001d0: dfdc 4dbe cd9a e7bd 4d3c 733e c8a0 813e
000001e0: 0046 89be f90b f5bd e395 003d 01da 673e
000001f0: 7bf2 6a3d ffb5 233e 25df bcbd ecf0 5d3e
00000200: 7839 3d3e e585 febc ee62 9b3e 6170 003e
00000210: 1571 013e c5e6 683b 7d02 87bc 05f1 3b3e
00000220: 6d15 a13d e2b0 323e 68cf 18be 9d04 413e
00000230: a5be 12be 2d41 b5be f597 8f3d b98b 9ebe
00000240: 001d 66be e3fb 94bd 263b d6bd 67d6 9e3d
00000250: 6df1 9dbd d869 c63d 83ba ec3d 077e bd3e
00000260: 3bbb 59be 6850 b73d 635e 133d 3a8a 41be
00000270: cd28 07be 77a0 903e b7f4 e2be d784 513e
00000280: f04a 5dbe 5aa7 973e 6697 d63d 5233 6b3e
00000290: cc44 aabe 8b97 903e c55e f23d 4893 903d
000002a0: e22d 023e e92f 0d3f 5378 6dbe 5ef9 99be
000002b0: a1c8 d73d c8eb bf3d 0b1c a4bc df49 8abe
000002c0: a54d d9be 5970 b8be 560a 123e 0a75 3d3e
000002d0: 5fe1 463e 9c32 833d a2a1 603d 4e9b 03be
000002e0: b227 1bbd 3b99 a8be 9a68 6e3d c818 303d
000002f0: ee0c 80be 65bb fd3d 0cfb 2cbd c4e5 7abe
00000300: f549 c53d 1e00 b63c f16f b13c b13c 7bbb
00000310: 8618 56bd c6d4 a3bc 3951 373e 4135 e73a
00000320: 04cd 693b 14ab 12be 97ba 323e cfc0 c73d
00000330: 2e6c 44be 40ea 55be 80cd 4bbe 7826 d1bc
00000340: f65f 243e 00de 3b3c 316b c1bd 5cd3 9c3d
00000350: 79ae ccbd e72f 4b3e d47d 28be 2b1d 1dbe
00000360: 53c5 dbbe b145 afbd 47a0 9bbd d446 393d
00000370: a026 be3d 78aa 9bbd 0652 29be 2dd1 b43d
00000380: 7064 8f3e 1cf7 c63e 9612 2bbd ff1e 85bb
00000390: 1706 13bf d62b 4a3e 73b7 14bd 7ebc 54be
000003a0: 2a6c 373f 5d4a e63d ec80 0e3e e4e0 e3be
000003b0: 2b8b 44bd 022c 883e 6e15 a53e 3eb8 50be
000003c0: 8411 cf3c 289a 7abd ef6a 0abe 11bc 0f3d
000003d0: 182b e8bc c720 913c 72ad 5f3e 6e7b af3b
000003e0: 057e 0e3e 5c5b ebbd 2de1 bc3e b563 1b3d
000003f0: 2702 02bf 2766 25bc 36de efbd 1dd4 91bd

lstm.bias_ih_l0 f4 [128]
-0.14800222 -0.056729246 -0.17747419 -0.044060092 -0.18895975 0.04337795 0.044262618 -0.37663615
-0.12396597 -0.15671863 -0.06653726 0.10135459 0.1583033 -0.0036713036 -0.23924297 -0.25120556
0.067274824 -0.057499435 0.13755146 -0.17692909 -0.07303598 -0.10421241 0.11506422 -0.19937654
-0.2253429 0.08803582 -0.048006844 -0.12066418 -0.27072895 -0.34133828 -0.05011882 -0.2235008
0.19238803 0.11337579 -0.007178075 0.056808066 0.2800105 0.113535374 0.19700614 0.02340862
0.04831108 -0.15835969 0.035650775 0.1807139 0.32765388 0.026791371 0.05937892 0.1431248
0.1413214 0.30416068 0.09318906 0.1791667 0.15403561 -0.12877034 -0.05762901 -0.073324405
0.14872313 0.08031193 0.044174593 0.053960048 0.06463344 -0.08507788 -0.09965557 0.11459804
-0.072142325 0.08125815 0.1069045 -0.014886387 0.12610309 -0.042556494 0.04456994 0.07534495
0.07497256 0.06628666 -0.12798794 -0.08449019 0.1325532 -0.05201166 -0.1072548 -0.025302613
-0.13761058 0.10907749 -0.1856444 0.18143801 0.17968276 -0.09433072 -0.031239934 0.12620203
-0.024601014 0.09404897 0.010279234 -0.114381775 -0.009324658 0.16720219 0.027744666 0.10919252
-0.05364818 0.20993046 -0.12772621 0.06823975 0.15750484 0.25629076 0.13119948 0.06561271
0.19079158 -0.0147783905 0.04397525 0.2687371 0.23725586 0.13971597 0.27816367 0.24230951
0.1747219 -0.07697096 0.05071812 0.21737634 0.013455836 -0.06758565 0.040717486 0.075591914
0.17842227 0.17400174 -0.009025639 0.024660576 0.0076912884 -0.11703607 -0.12559856 0.06839828
00000000: e58d 17be ed5c 68bd cbbb 35be 5b78 34bd
00000010: aa7e 41be 14ad 313d b84c 353d 74d6 c0be
00000020: dfe1 fdbd d97a 20be b044 88bd ff92 cf3d
00000030: 431a 223e 419a 70bb 1cfc 74be 049e 80be
00000040: 62c7 893d 8784 6bbd 4ada 0c3e e62c 35be
00000050: e393 95bd 516d d5bd caa6 eb3d 5d29 4cbe
00000060: 4ac0 66be 204c b43d d3a2 44bd c81e f7bd
00000070: fc9c 8abe e4c3 aebe 6449 4dbd 65dd 64be
00000080: 5e01 453e 9131 e83d 0f36 ebbb 93af 683d
00000090: 895d 8f3e 3c85 e83d fabb 493e 6fc3 bf3c
000000a0: d7e1 453d 0b29 22be 8c06 123d 110d 393e
000000b0: 40c2 a73e 9479 db3c 4f37 733d 4f8f 123e
000000c0: 8fb6 103e f3ba 9b3e e8d9 be3d 7a77 373e
000000d0: 83bb 1d3e 5fdc 03be 660c 6cbd 1b2b 96bd
000000e0: e04a 183e 957a a43d 6bf0 343d 3605 5d3d
000000f0: 895e 843d 503d aebd 3818 ccbd 61b2 ea3d
00000100: 5bbf 93bd ac6a a63d bff0 da3d 08e6 73bc
00000110: 2b21 013e b84f 2ebd f88e 363d 744e 9a3d
00000120: 378b 993d 4dc1 873d 450f 03be 3109 adbd
00000130: 07bc 073e 2e0a 55bd 68a8 dbbd 6d47 cfbc
00000140: cae9 0cbe 0564 df3d 9119 3ebe e3ca 393e
00000150: c2fe 373e 7730 c1bd e4ea ffbc 1b3b 013e
00000160: 1188 c9bc bf9c c03d 3b6a 283c fe40 eabd
00000170: 73c6 18bc 0d37 2b3e c848 e33c 54a0 df3d
00000180: 32be 5bbd 03f8 563e a9ca 02be 48c1 8b3d
00000190: f348 213e 8b38 833e 2859 063e f55f 863d
000001a0: de5e 433e 1021 72bc 641f 343d e997 893e
000001b0: 33f3 723e b411 0f3e 786b 8e3e fc1f 783e
000001c0: 4cea 323e f3a2 9dbd cebd 4f3d e797 5e3e
000001d0: de75 5c3c 586a 8abd 61c7 263d efcf 9a3d
000001e0: 54b4 363e 832d 323e 46e0 13bc fa04 ca3c
000001f0: 3407 fc3b 9bb0 efbd e99c 00be 6614 8c3d

lstm.bias_hh_l0 f4 [128]
0.048353735 -0.23281915 -0.29842928 -0.22685498 -0.014942547 0.16819608 -0.067242995 -0.29465985
-0.055637766 -0.2648675 0.114985205 -0.11442756 -0.012404343 -0.19403875 -0.056315754 -1.698916e-05
-0.01583985 -0.1933852 -0.09438861 0.039057955 -0.015438694 -0.24759074 0.08941549 -0.12890288
-0.20117743 0.0504069 0.11969734 -0.28749132 -0.024013534 -0.101225786 0.052878477 -0.04842435
0.17742155 0.11965438 0.20357215 0.064629376 0.28540516 0.14512385 0.06778858 0.11342023
0.17941687 0.008438831 -0.033838432 -0.09831645 0.14826171 0.09631961 -0.012610153 -0.046576817
0.079141654 -0.0043690144 0.004429217 -0.12162637 -0.046262186 0.107477106 -0.04779732 -0.106232844
0.09310304 0.17222509 0.064304344 0.046646614 0.13432719 0.12064137 -0.085890144 0.101054944
0.03941844 0.021941414 -0.08996827 0.14291508 0.15629953 -0.04342045 -0.08751454 0.08246865
0.024358869 0.21397379 -0.05890291 0.06421392 -0.04641812 0.11557003 -0.22966562 -0.20023142
-0.059139736 -0.13045211 -0.0024027948 0.13498965 -0.12246528 -0.022904865 -0.103741795 0.041517116
0.13789465 -0.074675635 -0.14078769 -0.09280665 0.14726233 0.18253197 0.033676777 -0.077120654
-0.061189987 -0.016168173 -0.0748142 0.15496092 0.09901846 0.18227957 0.105387405 -0.2592948
0.015813814 0.051693346 0.024415784 0.10994325 0.19123004 0.13316919 0.051675957 0.16562244
0.14064713 0.1881681 -0.08886804 0.15884066 -0.03828716 0.0020388735 0.26808518 0.14114451
0.14526753 0.14181359 -0.04286788 -0.011651329 0.23723699 -0.07535333 -0.1032775 -0.023466235
00000000: 910e 463d 2568 6ebe b9cb 98be ac4c 68be
00000010: 96d1 74bc 983b 2c3e b2b6 89bd a8dd 96be
00000020: 6de4 63bd b79c 87be 5d7d eb3d ff58 eabd
00000030: 963b 4bbc 18b2 46be 59ab 66bd f183 8eb7
00000040: 93c2 81bc c506 46be d14e c1bd 3cfb 1f3d
00000050: 93f2 7cbc 6d88 7dbe 781f b73d 1eff 03be
00000060: 7501 4ebe 7777 4e3d e123 f53d 1032 93be
00000070: 08b8 c4bc 774f cfbd 1a97 583d 9c58 46bd
00000080: ffad 353e 5b0d f53d 3875 503e 685c 843d
00000090: a020 923e 599b 143e bdd4 8a3d de48 e83d
000000a0: 0eb9 373e 0643 0a3c 2b9a 0abd 235a c9bd
000000b0: ebd1 173e 3743 c53d d19a 4ebc 55c7 3ebd
000000c0: 0515 a23d f329 8fbb f722 913b 3f17 f9bd
000000d0: 6b7d 3dbd f51c dc3d 1fc7 43bd 9b90 d9bd
000000e0: ceac be3d c65b 303e ffb1 833d 8510 3f3d
000000f0: 118d 093e d312 f73d 2ce7 afbd e5f5 ce3d
00000100: 3b75 213d 7bbe b33c 4941 b8bd 5558 123e
00000110: fc0c 203e a4d9 31bd d33a b3bd 53e5 a83d
00000120: 408c c73c f21b 5b3e 2e44 71bd 9682 833d
00000130: ed20 3ebd fbaf ec3d 772d 6bbe 7709 4dbe
00000140: 823c 72bd 3d95 05be 3578 1dbb ba3a 0a3e
00000150: 14cf fabd fca2 bbbc 9476 d4bd da0d 2a3d
00000160: 4134 0d3e 8aef 98bd a62a 10be 6a11 bebd
00000170: f0cb 163e a9e9 3a3e a9f0 093d 6ff1 9dbd
00000180: 5aa2 7abd 1e73 84bc 3038 99bd 13ae 1e3e
00000190: 31ca ca3d 7fa7 3a3e 5ad5 d73d 4ac2 84be
000001a0: f98b 813c 67bc 533d 9c03 c83c ed29 e13d
000001b0: cfd1 433e 815d 083e 2baa 533d ee98 293e
000001c0: cd05 103e 23af 403e 7200 b6bd 20a7 223e
000001d0: ffd2 1cbd 9f9e 053b 7642 893e 3088 103e
000001e0: 03c1 143e 9537 113e 3b96 2fbd 37e5 3ebc
000001f0: 41ee 723e d952 9abd 2783 d3bd 433c c0bc

lstm.weight_ih_l0_reverse f4 [128, 50]
0.05293283 0.01911439 -0.5361897 -0.08431006 -0.07908307 0.12991367 0.35889378 -0.3118208
0.2004334 0.35953465 0.17428632 -0.120458744 0.37036481 0.1174635 -0.25322363 -0.40543792
0.07768371 0.04803771 0.104987174 0.18036188 -0.011781061 0.14187476 0.083180256 -0.16029646
-0.31467405 0.11404241 0.024317356 -0.006056843 -0.12518954 -0.24959475 -0.21690805 -0.23791006
-0.14232264 -0.44067422 -0.08142026 0.012660114 -0.054889854 -0.027252106 -0.054659683 0.0625733
-0.025926514 -0.24739309 -0.0075255395 0.11698051 0.07639532 -0.24033844 0.2493889 0.13855314
0.39944935 0.07749642 -0.16629687 -0.079650305 -0.61513555 0.0128132915 -0.07900079 0.16370355
0.017601805 -0.34267247 -0.16108584 -0.1974327 0.21721494 -0.0070696394 0.002523516 0.082962915
0.07788021 -0.1522294 -0.12049249 -0.04359574 0.11219524 0.24135229 -0.120532416 0.26507902
0.05531668 0.20923325 -0.49161357 -0.03650391 0.218257 -0.20096654 -0.010550565 -0.15757935
-0.0069607827 0.11871507 0.25116614 -0.084219575 0.19213289 0.3431635 -0.2718581 -0.52226865
-0.37516192 0.17425881 -0.5632729 0.103015885 0.4304389 -0.04812578 0.16219868 -0.4992324
0.2392343 -0.31368324 -0.16431694 -0.112531915 -0.26751584 -0.21684067 0.26115027 -0.14848213
-0.29459602 -0.10071461 0.23447682 -0.1269078 -0.33095938 0.39843968 -0.2879861 0.049885016
-0.039614018 -0.32156625 -0.3210673 -0.08712723 -0.41480568 0.30887544 0.33129045 0.03202704
-0.059450477 -0.39750546 -0.50585335 0.06909529 -0.33847857 0.08923682 0.5586173 -0.322104
0.011765038 -0.07996983 -0.20396873 -0.41751847 0.2357224 -0.36092553 0.1745667 0.3373651
-0.30641392 -0.3284101 -0.29150492 -0.12580658 -0.3197804 0.051815763 -0.16052821 0.14760502
0.45999506 -0.21237211 0.32082045 -0.10645894 -0.23805375 -0.03264465 -0.16726425 -0.07483262
0.030287948 -0.22137925 0.071101375 -0.0009558867 0.38031402 -0.16192643 -0.024798922 0.06411828
0.07115917 0.057277165 0.15257461 -0.11808183 0.07037382 0.23993056 0.13519503 0.0022003565
0.5030813 0.14707464 -0.079177804 0.14988646 -0.14650074 0.2622072 -0.03410411 0.010072717
0.14288947 -0.016892916 -0.16560479 0.34869987 -0.20386396 -0.18115254 -0.36287934 -0.117650166
-0.3886826 -0.0003922302 -0.031148171 -0.22251739 0.053542767 -0.20291618 0.26513845 -0.17357126
0.2889149 -0.15790084 0.0653198 -0.06914441 -0.11977498 0.27252683 -0.026579145 -0.09657935
-0.48651904 -0.33885905 -0.4536851 -0.5778902 0.3507276 0.061312333 0.23116913 -0.04267713
-0.006397102 -0.025952851 0.2815797 -0.28266776 0.4541446 -0.45472693 -0.041387998 0.022558378
-0.3205677 -0.006517865 0.08201053 0.36759242 -0.08375746 0.15988748 0.04838633 0.1241335
-0.35175034 0.11071148 0.10307106 -0.1109727 -0.033579264 -0.30866185 -0.4793404 -0.040063217
0.1764039 -0.13102342 -0.015826613 0.26961514 -0.006173882 -0.3382702 -0.011662915 0.07389762
-0.08747041 -0.21118319 0.02594588 0.059853774 0.30734506 -0.25137642 0.32321748 0.015218024
-0.52472883 -0.28790617 -0.05301625 -0.072014116 -0.31802708 -0.32229277 0.16560496 0.1545059
00000000: 18d0 583d c895 9c3c ba43 09bf c1aa acbd
00000010: 4ef6 a1bd 1708 053e edc0 b73e faa6 9fbe
00000020: 6a3e 4d3e ed14 b83e 1d78 323e 13b3 f6bd
00000030: 75a0 bd3e b490 f03d 87a6 81be 8f95 cfbe
00000040: a318 9f3d 31c3 443d 8403 d73d c9b0 383e
00000050: 5a05 41bc 9e47 113e 695a aa3d c124 24be
00000060: f51c a1be 118f e93d 3135 c73c 7b78 c6bb
00000070: b031 00be c495 7fbe 251d 5ebe b29e 73be
00000080: 07bd 11be 0da0 e1be aabf a6bd 5e6c 4f3c
00000090: 2fd4 60bd cf3f dfbc d5e2 5fbd 6e26 803d
000000a0: d763 d4bc 9d54 7dbe cd98 f6bb 7a93 ef3d
000000b0: 2675 9c3d 481b 76be ce5f 7f3e e0e0 0d3e
000000c0: a084 cc3e 71b6 9e3d ba49 2abe b31f a3bd
000000d0: 8679 1dbf d7ee 513c 2bcb a1bd e7a1 273e
000000e0: a931 903c c472 afbe b0f3 24be cc2b 4abe
000000f0: 986d 5e3e 6fa8 e7bb 9361 253b 76e8 a93d
00000100: a97f 9f3d 06e2 1bbe c4c4 f6bd 7291 32bd
00000110: 9ec6 e53d 0e25 773e b3d9 f6bd 70b8 873e
00000120: be93 623d 3e41 563e c6b4 fbbe 2085 15bd
00000130: c37e 5f3e 2cca 4dbe 47dc 2cbc 7b5c 21be
00000140: 4717 e4bb e320 f33d d998 803e 507b acbd
00000150: 7cbe 443e 20b3 af3e fc30 8bbe 66b3 05bf
00000160: 3915 c0be e770 323e a732 10bf fef9 d23d
00000170: 7d62 dc3e 8a1f 45bd 6917 263e 649b ffbe
00000180: d6f9 743e 179b a0be b342 28be 2277 e6bd
00000190: d6f7 88be 7b0b 5ebe 7db5 853e b30b 18be
000001a0: 4ad5 96be 7643 cebd b11a 703e 1ef4 01be
000001b0: 8273 a9be 4900 cc3e ea72 93be 3b54 4c3d
000001c0: 4f42 22bd 55a4 a4be ef62 a4be c36f b2bd
000001d0: 6961 d4be ec24 9e3e e79e a93e c92e 033d
000001e0: 5882 73bd d685 cbbe 9b7f 01bf d581 8d3d
000001f0: 104d adbe cbc1 b63d 8b01 0f3f d1ea a4be
00000200: 25c2 403c 39c7 a3bd 2edd 50be fbc4 d5be
00000210: 3661 713e 3bcb b8be 9dc1 323e 1ebb ac3e
00000220: 49e2 9cbe 5e25 a8be 2240 95be 71d3 00be
00000230: 42ba a3be c43c 543d 8261 24be c525 173e
00000240: 7984 eb3e 1378 59be 9442 a43e 2507 dabd
00000250: 5dc4 73be 66b6 05bd 5247 2bbe d841 99bd
00000260: 6e1e f83c 3eb1 62be 999d 913d 7894 7aba
00000270: 85b8 c23e 0bd0 25be 1c27 cbbc 7250 833d
00000280: e6bb 913d 769b 6a3d 853c 1c3e e3d4 f1bd
00000290: 2620 903d 5bb0 753e 9170 0a3e db33 103b
000002a0: f0c9 003f bc9a 163e f927 a2bd d67b 193e
000002b0: 4a04 16be 0640 863e c0b0 0bbd 0a08 253c
000002c0: 9e51 123e 0363 8abc 4d94 29be ca88 b23e
000002d0: b7c1 50be 0d80 39be 52cb b9be 92f2 f0bd
000002e0: 6801 c7be 3fa4 cdb9 732a ffbc 99db 63be
000002f0: a94f 5b3d 42c9 4fbe 3ac0 873e aabc 31be
00000300: a7ec 933e c2b0 21be 63c6 853d 969b 8dbd
00000310: 964c f5bd a388 8b3e 82bc d9bc 65cb c5bd
00000320: 0619 f9be ef7e adbe 6a49 e8be 9df0 13bf
00000330: 9192 b33e a422 7b3d 9ab7 6c3e 37ce 2ebd
00000340: c89e d1bb 139b d4bc 372b 903e d4b9 90be
00000350: a485 e83e f8d1 e8be 7686 29bd 59cc b83c
00000360: 7321 a4be d193 d5bb 23f5 a73d 1335 bc3e
00000370: 0889 abbd 8bb9 233e bf30 463d b439 fe3d
00000380: 9f18 b4be b3bc e23d eb16 d33d a845 e3bd
00000390: 698a 09bd ed08 9ebe 1b6c f5be 5419 24bd
000003a0: 39a3 343e 012b 06be d0a6 81bc ff0a 8a3e
000003b0: 474e cabb c031 adbe d015 3fbc a357 973d
000003c0: b023 b3bd 6840 58be 748c d43c 3b29 753d
000003d0: 555c 9d3e 69b4 80be c37c a53e 0555 793c
000003e0: a154 06bf 7068 93be 9127 59bd 237c 93bd
000003f0: 72d4 a2be 8f03 a5be 5994 293e cb36 1e3e

lstm.weight_hh_l0_reverse f4 [128, 32]
0.32199642 0.0035554173 -0.20813237 0.041625082 -0.21373986 0.1741247 0.12483907 -0.20636307
0.16763675 0.039558873 -0.15113808 0.46329322 0.037115194 0.10157663 0.0918924 0.38133675
0.174382 -0.28486505 0.061761174 -0.30693755 -0.25583816 -0.18647552 0.05921047 0.45383388
-0.023101235 0.31814718 0.09038265 -0.022995204 0.3838952 0.36384645 -0.18587673 -0.0064686905
-0.16779539 -0.10441089 0.34900513 0.2657832 -0.0011117455 0.06672388 -0.1760617 -0.16328293
-0.24750212 -0.09497529 -0.31451166 -0.21999705 0.1507288 -0.025556915 -0.097550854 0.19671085
-0.09430289 0.15401445 0.30134043 0.18937843 -0.04030853 0.20270306 0.05495476 0.10410519
0.23141374 0.30929065 0.46998134 0.008964541 -0.04416143 0.03788625 0.27696946 0.021379557
-0.3250006 0.17960583 -0.21056552 0.5003243 0.24655779 -0.13142493 -0.06638525 -0.07230889
0.037206843 0.002145144 -0.069539204 -0.047543313 0.3696585 -0.19369951 -0.2230387 0.23351263
-0.082198575 0.338599 0.25558692 0.29443765 -0.0919754 0.15226737 0.03415032 0.25606337
0.10299571 0.04757614 0.4162225 0.03458431 0.3869088 0.08054707 0.226616 -0.16705397
-0.25455716 0.1786953 -0.1956979 0.057350192 0.2753774 -0.1578779 0.039481655 -0.21459235
0.049125075 0.29870495 -0.13549241 -0.1546819 0.07702269 -0.18146043 0.1955578 -0.042467795
-0.15473457 0.17013456 -0.12434133 -0.12330282 0.057576895 0.24458745 -0.36331162 -0.011868052
0.03931328 0.043463897 -0.096990466 0.14455737 -0.072749816 0.11909606 -0.03741848 -0.17841513
-0.11511003 0.006286997 -0.005424498 0.24178666 -0.14362752 -0.037515588 0.1485059 -0.050808407
-0.08729577 -0.089018404 -0.08685537 -0.28633946 0.1924799 -0.10569734 -0.2563116 0.15669544
0.15464357 0.046661463 0.19133727 0.229159 -0.2261829 0.1486459 0.11305275 -0.18834224
0.05239172 0.15421021 0.21100274 0.024811646 -0.2870072 -0.3084545 0.18145393 0.39177677
-0.03775321 0.029410657 0.25469607 0.17730479 -0.060752437 -0.06430981 0.14507967 0.19757666
-0.052587308 0.032259077 -0.13612781 -0.19136469 -0.07772987 -0.23976119 -0.48911467 -0.22097829
0.012563723 0.1789541 0.42448753 0.21699843 -0.09303054 0.2533667 -0.33468482 -0.11813526
0.31496876 0.40975428 0.21807355 -0.12537527 -0.018131439 -0.1482396 0.25899142 0.3083404
-0.390483 -0.03506878 0.31575608 0.3150617 -0.19663978 -0.036958624 -0.18701683 -0.23792236
-0.2333458 -0.047974538 0.11037445 -0.28252864 -0.07784448 0.22802001 -0.13523434 -0.35170978
-0.0975711 0.042617917 0.102166034 0.18907177 0.3315578 0.02145069 0.06562663 -0.057777293
0.12965083 0.114870384 0.42402264 -0.27217016 -0.27277493 -0.0029713456 0.19251403 0.33895284
-0.11673104 0.34018764 0.08233119 0.05257874 -0.33401176 0.1654413 -0.2151612 -0.09390654
-0.096621364 0.17508501 0.11756147 0.17915268 0.4871624 0.013423906 -0.44784695 0.5220579
0.008837351 0.29926118 0.12028669 0.056892183 -0.19289152 -0.23220818 0.57150954 0.031034287
-0.002963235 0.051922556 0.56142217 -0.18948328 -0.05862097 0.19825773 -0.08932871 -0.18008168
00000000: b7dc a43e 0102 693b a720 55be 107f 2a3d
00000010: 9fde 5abe bf4d 323e a0ab ff3d d750 53be
00000020: f8a8 2b3e 7c08 223d f1c3 1abe c534 ed3e
00000030: 1a06 183d 6807 d03d 1532 bc3d 923e c33e
00000040: 3291 323e d5d9 91be 49f9 7c3d eb26 9dbe
00000050: 38fd 82be 70f3 3ebe ae86 723d ea5c e83e
00000060: cd3e bdbc 30e4 a23e 8a1a b93d 7060 bcbc
00000070: e98d c43e 154a ba3e 7856 3ebe 4ff7 d3bb
00000080: 8ed2 2bbe 60d5 d5bd cdb0 b23e bc14 883e
00000090: fdb7 91ba 88a6 883d 8549 34be a433 27be
000000a0: 3271 7dbe 6882 c2bd ac07 a1be e846 61be
000000b0: a758 1a3e bc5c d1bc bec8 c7bd 926e 493e
000000c0: e021 c1bd f7b5 1d3e 4b49 9a3e 6bec 413e
000000d0: 8f1a 25bd 6491 4f3e 3e18 613d 1a35 d53d
000000e0: b9f7 6c3e 585b 9e3e 65a1 f03e 03e0 123c
000000f0: 9ee2 34bd 9d2e 1b3d f1ce 8d3e 2e24 af3c
00000100: 7b66 a6be 97ea 373e 7d9e 57be 4115 003f
00000110: a579 7c3e 4294 06be fdf4 87bd af16 94bd
00000120: 3466 183d 8b95 0c3b 926a 8ebd c7bc 42bd
00000130: e143 bd3e 2a59 46be 4264 64be ef1d 6f3e
00000140: ba57 a8bd d95c ad3e 4adc 823e 88c0 963e
00000150: 995d bcbd faeb 1b3e 35e1 0b3d bd1a 833e
00000160: 6aef d23d 33df 423d 1e1b d53e 47a8 0d3d
00000170: e918 c63e ddf5 a43d 060e 683e 3210 2bbe
00000180: 5155 82be e7fb 363e 0865 48be 09e8 6a3d
00000190: 44fe 8c3e bfaa 21be 84b7 213d 19be 5bbe
000001a0: 6037 493d dbef 983e 86be 0abe ef64 1ebe
000001b0: 12be 9d3d c3d0 39be 4e40 483e b6f2 2dbd
000001c0: bd72 1ebe c137 2e3e aba6 febd 3086 fcbd
000001d0: c0d5 6b3d 2275 7a3e fb03 babe 3872 42bc
000001e0: f606 213d 3307 323d f0a2 c6bd d906 143e
000001f0: dbfd 94bd a3e8 f33d 1f44 19bd 75b2 36be
00000200: cfbe ebbd 2703 ce3b fdbf b1bb ec96 773e
00000210: 1813 13be f2a9 19bd ee11 183e 7a1c 50bd
00000220: 20c8 b2bd 484f b6bd 3ae1 b1bd 169b 92be
00000230: 7319 453e d977 d8bd 463b 83be c574 203e
00000240: e25a 1e3e 1720 3f3d ebed 433e a8a8 6a3e
00000250: 7d9c 67be a136 183e 3388 e73d cadc 40be
00000260: b398 563d 48e9 1d3e 1a11 583e cb41 cb3c
00000270: 9cf2 92be c0ed 9dbe 0fcf 393e f796 c83e
00000280: 1ca3 1abd 9eee f03c 8667 823e 638f 353e
00000290: 8cd7 78bd ddb4 83bd c48f 143e 8951 4a3e
000002a0: ca65 57bd 1822 043d 1765 0bbe 1bf5 43be
000002b0: d730 9fbd f583 75be 3d6d fabe 2248 62be
000002c0: 13d8 4d3c be3f 373e 6e56 d93e d634 5e3e
000002d0: cc86 bebd 48b9 813e cf5b abbe e6f0 f1bd
000002e0: 9643 a13e 50cb d13e ac4e 5f3e 6062 00be
000002f0: 6288 94bc 1fcc 17be 869a 843e cbde 9d3e
00000300: 63ed c7be 48a4 0fbd c8aa a13e c44f a13e
00000310: f05b 49be ed61 17bd 5781 3fbe eba1 73be
00000320: 34f2 6ebe f380 44bd 000c e23d 98a7 90be
00000330: ed6c 9fbd 147e 693e df7a 0abe 4e13 b4be
00000340: 5bd3 c7bd 2090 2e3d 6d3c d13d 089c 413e
00000350: f2c1 a93e 5cb9 af3c 4167 863d e2a7 6cbd
00000360: 30c3 043e 2a41 eb3d 7f19 d93e e359 8bbe
00000370: 28a9 8bbe e8ba 42bb 6622 453e 3a8b ad3e
00000380: af10 efbd 132d ae3e 419d a83d ce5c 573d
00000390: 9703 abbe 7269 293e 3853 5cbe 1252 c0bd
000003a0: 6ce1 c5bd 7c49 333e 11c4 f03d cd73 373e
000003b0: 5a6d f93e f1ef 5b3c 324c e5be 96a5 053f
000003c0: 89ca 103c c338 993e de58 f63d c707 693d
000003d0: 5b85 45be fbc7 6dbe 734e 123f 9e3b fe3c
000003e0: d532 42bb bfac 543d 5db9 0f3f e807 42be
000003f0: 8b1c 70bd 1304 4b3e f9f1 b6bd 5567 38be

lstm.bias_ih_l0_reverse f4 [128]
0.15017474 -0.11177477 -0.27165452 0.13377027 -0.085483335 -0.08275292 -0.1095417 -0.17917915
-0.14929026 -0.068906456 -0.122623295 -0.16144748 -0.15850975 0.05200528 -0.11944148 0.10362503
-0.3454781 -0.14461344 -0.22755933 0.07068851 -0.3244635 -0.07300731 -0.25050718 -0.24724625
-0.047703337 -0.3926878 -0.12214719 -0.0023184777 -0.33585417 -0.010055721 0.20652206 -0.27878848
0.27442428 -0.047844023 0.3491558 0.13025153 0.21256192 -0.033956207 0.26367477 0.10818391
0.031740744 0.24085854 -0.06603013 0.019052947 0.15431722 0.33219987 -0.0054950775 -0.0019227606
0.13242477 0.21595573 -0.12438362 0.34945878 0.27985463 0.009518835 0.110241696 -0.11971786
0.07750208 0.23300283 -0.008955778 0.038864627 0.07010414 0.15629674 0.15799816 0.24668127
0.14257489 -0.06622061 -0.131809 -0.028019236 -0.011176788 -0.13030076 -0.12200856 -0.1499864
-0.108311206 -0.08690434 0.14206557 0.075369686 -0.1519388 0.04766723 0.11871971 0.06356614
-0.1759542 0.019808616 -0.059096057 0.09917043 0.01819237 -0.045073263 0.034344453 -0.0010393392
0.06152098 -0.023775121 -0.13040534 -0.15085463 -0.05150022 -0.10249129 0.040727817 -0.14856523
0.15752952 -0.106645 0.17693403 0.099241555 0.20811306 -0.14118938 0.27659822 0.09803978
0.17494492 0.01675591 -0.059676398 0.28949013 -0.15203984 0.117012426 -0.1340661 0.04482571
0.17326592 0.097433135 -0.051337224 0.13610348 -0.004816604 0.048376385 0.06344495 0.22245444
-0.08581037 0.14982 -0.07252343 0.19764562 0.25599688 0.025528787 0.23266815 -0.086224884
00000000: 68c7 193e 2cea e4bd 4d16 8bbe 13fb 083e
00000010: e311 afbd 5d7a a9bd 6657 e0bd bd7a 37be
00000020: 8cdf 18be d41e 8dbd ec21 fbbd 7d52 25be
00000030: 6150 22be 7d03 553d bc9d f4bd 5c39 d43d
00000040: 81e2 b0be 8c15 14be 5005 69be 23c5 903d
00000050: 1420 a6be db84 95bd 7a42 80be 1f2e 7dbe
00000060: 9364 43bd 600e c9be 4e28 fabd 9af1 17bb
00000070: 14f5 abbe c0c0 24bc 857a 533e 5dbd 8ebe
00000080: 5781 8c3e 18f8 43bd 8dc4 b23e a860 053e
00000090: d5a9 593e aa15 0bbd 6100 873e 878f dd3d
000000a0: 9502 023d 9fa3 763e ce3a 87bd ed14 9c3c
000000b0: 5505 1e3e 1a16 aa3e 0d10 b4bb 2405 fcba
000000c0: 5c9a 073e 8023 5d3e d7bc febd 43ec b23e
000000d0: 1b49 8f3e e3f4 1b3c 66c6 e13d a32e f5bd
000000e0: 69b9 9e3d 4b98 6e3e 41bb 12bc 8430 1f3d
000000f0: c292 8f3d 410c 203e 45ca 213e 049a 7c3e
00000100: 27ff 113e ac9e 87bd f0f8 06be 9988 e5bc
00000110: d91e 37bc 906d 05be a0df f9bd 0996 19be
00000120: 44d2 ddbd e7fa b1bd a379 113e 6c5b 9a3d
00000130: d895 1bbe b73e 433d 5223 f33d f72e 823d
00000140: 562d 34be ae45 a23c b50e 72bd de19 cb3d
00000150: 2a08 953c be9e 38bd c5ac 0c3d 703a 88ba
00000160: 6cfd 7b3d 0bc4 c2bc fa88 05be a379 1abe
00000170: e5f1 52bd f4e6 d1bd 36d2 263d 7c21 18be
00000180: 6b4f 213e b268 dabd 322e 353e 283f cb3d
00000190: 971b 553e f393 10be 489e 8d3e 15c9 c83d
000001a0: c324 333e b143 893c 3d6f 74bd 0d38 943e
000001b0: 55b0 1bbe 36a4 ef3d a048 09be 2a9b 373d
000001c0: 9f6c 313e 068b c73d fb46 52bd b65e 0b3e
000001d0: 9ad4 9dbb 5126 463d 6def 813d 19cb 633e
000001e0: 59bd afbd 6a6a 193e 2a87 94bd 9d63 4a3e
000001f0: 0612 833e bf21 d13c 8f40 6e3e ac96 b0bd

lstm.bias_hh_l0_reverse f4 [128]
-0.085973434 -0.096937984 -0.49367476 -0.03983324 -0.29180485 -0.018423634 -0.06739915 -0.05347522
-0.010033458 -0.03595801 0.086171016 -0.24196458 -0.1835233 -0.18654765 -0.12372988 -0.07263069
-0.035456244 -0.13713795 -0.29353693 0.1807117 -0.5636215 0.10034144 -0.27094543 -0.07772063
0.07080734 -0.30519938 -0.21816899 0.079337046 -0.23548917 0.09465794 -0.0533059 -0.19880673
0.20720616 0.09443883 0.117204845 0.06935471 0.24799737 0.028043907 0.047837928 -0.017648242
0.2286927 0.26342645 0.02096754 0.22402291 0.25634065 0.24268629 0.0030367125 -0.02275794
0.2510896 -0.009926747 0.18139365 0.241502 0.19076236 0.08296377 0.16842467 0.08352617
-0.0505892 0.10240168 0.1651256 0.26488063 0.023250008 0.10131535 0.18601437 0.25511342
-0.18138187 0.021170879 0.07433299 0.16856273 -0.03222856 -0.093769275 0.09845968 0.1213678
0.09774289 0.23058626 0.13332383 -0.05689749 -0.14077216 -0.1606492 -0.19871481 -0.13141707
0.010356504 0.10574852 0.16183525 -0.08514658 0.12248662 0.06037457 0.043976486 -0.009620559
0.11374332 0.13144012 0.1294967 -0.07293548 0.045468453 0.123353936 0.120941706 0.041010536
0.20510958 -0.09683498 0.21158674 0.18622844 0.13443717 -0.1449664 0.11950914 0.041613247
0.1521535 0.21963632 -0.007195923 0.25424096 0.00045383288 0.0037253986 0.03845223 0.056908444
0.20515963 -0.026630731 0.05777488 0.035218984 0.06455821 0.12020736 -0.029178515 -0.0037273136
0.015402938 -0.06348999 0.116390735 0.106509574 0.008126718 0.19954917 0.32883438 -0.11710711
00000000: d712 b0bd 6c87 c6bd f0c2 fcbe 2e28 23bd
00000010: 7267 95be 29ed 96bc 9108 8abd d508 5bbd
00000020: 5f63 24bc b548 13bd 6e7a b03d 90c5 77be
00000030: 88ed 3bbe 5906 3fbe 1766 fdbd 66bf 94bd
00000040: 913a 11bd e46d 0cbe 794a 96be 7d0c 393e
00000050: 8049 10bf d07f cd3d 5cb9 8abe fe2b 9fbd
00000060: 7003 913d 1843 9cbe b167 5fbe 767b a23d
00000070: 1324 71be 06dc c13d 4a57 5abd fe93 4bbe
00000080: da2d 543e 2569 c13d 1809 f03d d809 8e3d
00000090: 06f3 7d3e 56bc e53c b4f1 433d 0c93 90bc
000000a0: 6b2e 6a3e d5df 863e 1ec4 ab3c 4366 653e
000000b0: 153f 833e c182 783e 9503 473b dc6e babc
000000c0: d18e 803e cba3 22bc 42bf 393e 4d4c 773e
000000d0: 3557 433e e9e8 a93d 8477 2c3e c50f ab3d
000000e0: 9f36 4fbd f9b7 d13d af16 293e 6f9e 873e
000000f0: cd76 be3c 6c7e cf3d 8d7a 3e3e 3a9e 823e
00000100: 2bbc 39be 8d6e ad3c e53b 983d b59b 2c3e
00000110: 1802 04bd 1b0a c0bd 3ba5 c93d ae8f f83d
00000120: 6d2d c83d ce1e 6c3e 0b86 083e 580d 69bd
00000130: 9426 10be 3981 24be e57b 4bbe 3292 06be
00000140: 53ae 293c ae92 d83d 24b8 253e 5561 aebd
00000150: 44da fa3d 534b 773d b020 343d 8d9f 1dbc
00000160: 42f2 e83d 3d98 063e c89a 043e 325f 95bd
00000170: 213d 3a3d fda0 fc3d 49b0 f73d aafa 273d
00000180: 3f08 523e 6b51 c6bd 32aa 583e abb2 3e3e
00000190: e6a9 093e 1272 14be 35c1 f43d a772 2a3d
000001a0: 21ce 1b3e 58e8 603e c7cb ebbb df2b 823e
000001b0: 6bf0 ed39 d125 743b 1680 1d3d d418 693d
000001c0: 5e15 523e b128 dabc 5aa5 6c3d c841 103d
000001d0: 1837 843d 472f f63d c807 efbc f245 74bb
000001e0: 9b5c 7c3c 0a07 82bd 445e ee3d b121 da3d
000001f0: ed25 053c 9e56 4c3e fb5c a83e dad5 efbd

lstm.weight_ih_l1 f4 [128, 64]
0.17711115 0.09584328 0.17813712 0.23533197 -0.0033471454 0.23931722 -0.21115522 -0.06737588
0.24975252 0.10988937 -0.18513004 0.23856388 -0.26622146 -0.044394623 -0.10869766 0.08383458
-0.2028948 0.054672487 0.046950877 0.18555893 0.003478886 -0.18893716 0.19532536 0.22272523
0.056669906 0.1943221 -0.179198 -0.23200029 -0.08242759 -0.059802692 0.18420497 -0.024809897
0.03878748 -0.05372331 0.16681594 0.07023657 0.010738374 -0.1493746 -0.2538154 -0.14636853
-0.11758285 -0.08410345 0.25792074 0.04601641 -0.18137501 -0.16979869 0.02028599 -0.08756797
-0.101999655 0.033168297 0.18551542 0.14056633 -0.06565106 0.24706912 0.018016685 -0.0007572385
-0.086610414 0.085831456 0.053102296 -0.2135553 -0.068063535 0.101563096 0.013729839 -0.24170463
-0.25011256 -0.107598424 -0.2529755 -0.07576709 -0.12822866 -0.25861356 0.12910786 -0.1279267
-0.2760526 -0.19176099 0.030663975 -0.05448424 0.12386228 -0.05693274 0.12669864 0.28961536
-0.04169737 -0.028733728 0.24972436 -0.14917822 -0.051025264 0.16559689 -0.13963957 -0.25489187
-0.13600317 -0.05707294 0.2817983 0.124319285 -0.32493865 0.0022581802 -0.09515214 0.32762846
-0.0067107114 0.18576975 0.2054523 -0.17688857 -0.17479269 0.11929769 -0.11015783 0.24592704
-0.0875704 0.017920338 0.015842378 -0.09966352 0.029384037 -0.043775078 0.24250922 0.18392968
0.26449946 -0.16212457 -0.275165 0.1481025 0.04117247 -0.17808762 -0.13817076 0.073321804
0.026735313 -0.08466264 -0.11814241 0.0372312 0.2909756 -0.07848425 -0.08428735 0.13955614
-0.055259187 -0.15727378 -0.3515002 0.03138477 -0.15634967 0.022752292 0.23860021 0.051074162
-0.20130718 -0.1018307 0.270495 -0.14585106 0.114011005 -0.20932367 0.1381299 0.10750637
0.1652632 0.08952929 0.16737272 -0.17729601 -0.06935922 -0.01731546 -0.1449959 -0.10274092
-0.13162379 0.0084122745 0.059040796 0.13654186 -0.23398094 0.031817358 -0.15947238 0.101978764
0.17717734 0.11548245 -0.13692193 -0.25787687 -0.10604118 0.09085716 0.12851445 -0.11386883
-0.03026061 -0.16294149 -0.06536619 0.058305364 -0.09681164 0.051499967 0.13122575 0.121927835
-0.0263066 -0.012211262 -0.16045512 -0.029251216 -0.103618495 0.04353616 -0.16231675 -0.028887827
-0.030451426 -0.040774267 -0.07141525 0.108233556 -0.04436348 -0.15420336 -0.13519658 0.18495935
-0.1921864 0.043092556 -0.091318145 -0.12003232 -0.22691111 0.0056910655 -0.00010911703 -0.03607852
-0.124041535 -0.2188302 0.036525056 -0.08475712 0.05915355 0.06767929 0.10140775 -0.03509495
0.17860898 0.24625109 0.04891263 -0.20952109 0.034895476 0.2171782 -0.038706202 -0.22578402
0.21848689 -0.22827685 0.18539721 0.055232465 -0.25596362 0.027977461 -0.009838922 -0.08866852
0.062272806 0.14317846 0.046552803 -0.0906654 -0.050225686 0.28302413 0.050940484 -0.09263209
0.4067188 -0.05072663 0.033363134 -0.12300564 -0.05060239 0.00014565092 0.104415365 0.18740095
-0.013815229 0.047807716 -0.17541611 -0.23178908 0.008769128 0.022935644 0.11816156 0.1418194
-0.0033760346 -0.16631718 0.039442953 0.06807627 0.24105276 -0.16739161 -0.096079305 0.24706072
00000000: a05c 353e 7b49 c43d 9469 363e ddfa 703e
00000010: c85b 5bbb 930f 753e 1339 58be 5efc 89bd
00000020: 20bf 7f3e ae0d e13d bb92 3dbe 174a 743e
00000030: 2e4e 88be 23d7 35bd e19c debd 77b1 ab3d
00000040: a8c3 4fbe 42f0 5f3d 904f 403d 2903 3e3e
00000050: 06fe 633b be78 41be 5f03 483e 1512 643e
00000060: b41e 683d 5ffc 463e ae7f 37be 7c91 6dbe
00000070: cccf a8bd abf3 74bd 3aa0 3c3e 203e cbbc
00000080: 9fdf 1e3d f90c 5cbd ccd1 2a3e 31d8 8f3d
00000090: 01f0 2f3c a8f5 18be 18f4 81be a2e1 15be
000000a0: 47cf f0bd 6e3e acbd 300e 843e b47b 3c3d
000000b0: 5fba 39be b5df 2dbe ce2e a63c d656 b3bd
000000c0: 32e5 d0bd 7bdb 073d c1f7 3d3e 9ff0 0f3e
000000d0: 1074 86bd b0ff 7c3e ba97 933c 6a81 46ba
000000e0: cd60 b1bd 67c8 af3d cb81 593d 3eae 5abe
000000f0: e564 8bbd 5000 d03d 1ef3 603c 6b81 77be
00000100: c10e 80be 905c dcbd 0186 81be c72b 9bbd
00000110: 604e 03be ff68 84be da34 043e 38ff 02be
00000120: c456 8dbe fe5c 44be 0433 fb3c de2a 5fbd
00000130: 82ab fd3d 4e32 69bd 4abd 013e 7748 943e
00000140: ddca 2abd ff62 ebbc beb7 7f3e 2dc2 18be
00000150: deff 50bd 3b92 293e adfd 0ebe 3081 82be
00000160: 6a44 0bbe 51c5 69bd de47 903e 1c9b fe3d
00000170: 5c5e a6be fafd 133b 20df c2bd ebbe a73e
00000180: 87e5 dbbb 6d3a 3e3e 1662 523e 4722 35be
00000190: dbfc 32be 5952 f43d 6e9a e1bd 4cd4 7b3e
000001a0: 1c58 b3bd accd 923c e0c7 813c 631c ccbd
000001b0: cbb6 f03c 7f4d 33bd 5654 783e 1058 3c3e
000001c0: 796c 873e fc03 26be 6de2 8cbe 2fa8 173e
000001d0: 77a4 283d 9a5c 36be a37c 0dbe be29 963d
000001e0: 0404 db3c 9b63 adbd a6f4 f1bd be7f 183d
000001f0: c1fa 943e 5abc a0bd d99e acbd cee7 0e3e
00000200: 7557 62bd 610c 21be d6f7 b3be 518d 003d
00000210: 211a 20be 0463 ba3c 9d53 743e 2433 513d
00000220: 7823 4ebe 9d8c d0bd 527e 8a3e fb59 15be
00000230: 9a7e e93d f258 56be ed71 0d3e 4d2c dc3d
00000240: c23a 293e 225b b73d c163 2b3e 168d 35be
00000250: 350c 8ebd 27d9 8dbc ce79 14be d569 d2bd
00000260: 63c8 06be a3d3 093c c3d4 713d a1d1 0b3e
00000270: b398 6fbe eb52 023d ba4c 23be 3eda d03d
00000280: fa6d 353e 1082 ec3d 4335 0cbe 7008 84be
00000290: 1e2c d9bd 5213 ba3d 4b99 033e 1034 e9bd
000002a0: 19e5 f7bc 22da 26be b6de 85bd 9bd1 6e3d
000002b0: 2e45 c6bd a1f1 523d 0b60 063e 4db5 f93d
000002c0: f080 d7bc bf11 48bc 594e 24be 3fa0 efbc
000002d0: ef35 d4bd f952 323d 5d36 26be 2aa6 ecbc
000002e0: 4575 f9bc eb02 27bd 2942 92bd 8ea9 dd3d
000002f0: 7bb6 35bd 7ce7 1dbe f970 0abe fc65 3d3e
00000300: 83cc 44be d281 303d 0205 bbbd 81d3 f5bd
00000310: 635b 68be 1e7c ba3b c2d5 e4b8 12c7 13bd
00000320: 7d09 febd 0615 60be 4c9b 153d 2495 adbd
00000330: fe4a 723d 719b 8a3d deae cf3d b9bf 0fbd
00000340: 46e5 363e 3f29 7c3e 9c58 483d b28c 56be
00000350: 8fee 0e3d f663 5e3e 658a 1ebd ed33 67be
00000360: 07bb 5f3e 68c1 69be c4d8 3d3e 703b 623d
00000370: aa0d 83be fd30 e53c 6e33 21bc d797 b5bd
00000380: c511 7f3d 609d 123e 27ae 3e3d c8ae b9bd
00000390: 73b9 4dbd 8ae8 903e f8a6 503d e5b5 bdbd
000003a0: 723d d03e bac6 4fbd c8a7 083d 62ea fbbd
000003b0: 7444 4fbd dfb9 1839 b9d7 d53d 09e6 3f3e
000003c0: 4559 62bc 06d2 433d 48a0 33be 1e5a 6dbe
000003d0: 63ac 0f3c 88e3 bb3c b0fe f13d 1b39 113e
000003e0: 7640 5dbb 0d4f 2abe ef8e 213d 926b 8b3d
000003f0: 89d6 763e b568 2bbe 3ac5 c4bd 7cfd 7c3e

lstm.weight_hh_l1 f4 [128, 32]
-0.15201735 0.060101748 0.1575242 0.007694508 0.024626208 0.18730913 0.048403732 -0.135699
0.11539151 -0.053797547 -0.30454138 0.033251956 0.14074339 -0.07090477 0.16665122 0.24876331
-0.123156756 0.11701099 0.042874604 0.035785154 0.111687884 0.2249572 -0.13586648 -0.0431036
0.003919255 -0.15852402 -0.10458137 0.29309842 -0.2575693 0.06468251 -0.05770349 -0.03561424
0.1803534 0.019588355 0.070368335 -0.07061675 -0.062747516 0.09158255 -0.17085814 0.18857147
-0.101401836 0.16173398 0.21094064 0.20780317 0.1358215 -0.016469417 -0.084656425 -0.002936672
0.08836832 0.12086001 -0.070091166 -0.28155288 -0.22442265 -0.13324596 0.010812366 -0.09751711
-0.21652436 0.2964602 -0.15632387 -0.2802288 0.26337606 -0.039454978 -0.022273893 0.01522254
0.35594833 -0.1385986 -0.01793892 -0.23964387 -0.0383164 0.1480495 0.014352795 -0.12849662
0.03763461 0.28327554 0.20093472 0.25061634 0.055378422 -0.100233406 0.031559557 -0.14492168
0.03821855 0.13818477 -0.008682293 -0.26914406 -0.23059252 -0.28715113 -0.07067747 -0.11172989
-0.002423236 -0.02052534 0.0013781531 -0.09619833 0.048580978 0.027886769 -0.064933084 -0.051637016
0.29304647 -0.04177108 0.090046 -0.24616103 -0.03661575 -0.08856406 0.044351142 -0.061694
-0.040590905 0.22916721 0.19877478 0.1307399 -0.009705608 0.20937838 0.057720333 -0.24749222
-0.13618001 0.26739585 -0.28377107 -0.23259485 -0.124839105 -0.24240094 -0.037728574 -0.16002938
-0.29179966 0.0905965 -0.13838948 -0.20303424 0.15826088 -0.08887818 0.21402346 -0.049495015
-0.036220375 0.16687702 0.100897364 0.22003825 -0.058179636 -0.118871525 -0.09939328 -0.17822906
-0.008154417 -0.003843837 -0.053248644 -0.10824171 -0.023030693 0.02534959 0.15636906 0.21380238
0.08641517 -0.1874671 0.20845339 0.041835934 -0.027532147 0.15590042 -0.1838363 -0.17668167
0.0057852487 -0.06364332 0.22086269 0.24614672 -0.1968263 0.061365347 -0.09662092 -0.18585625
0.11597096 0.109073944 -0.053634673 0.045640633 -0.06302637 0.10266633 -0.106054656 0.082246274
-0.07755686 0.1658693 0.027554996 0.2280551 -0.06209081 0.028766042 0.08158661 -0.22926524
0.12652762 -0.07757514 -0.22110167 -0.044275623 -0.12367161 -0.097915664 -0.059738196 -0.029305289
-0.1334441 -0.05577878 -0.03647586 -0.009827276 0.3041627 0.1972834 0.08300889 -0.035693854
0.35547203 -0.049199678 -0.075430036 -0.101931706 -0.3291934 0.10693572 0.06702578 0.17941597
-0.11733234 0.29461882 0.23855083 0.14485897 -0.07368712 0.14428395 -0.1339879 -0.34964117
-0.08117581 -0.12518752 -0.35838652 -0.15069582 -0.109494366 -0.2968354 -0.12875487 0.09346597
-0.34084043 0.29471296 0.028934557 -0.18220636 0.26517498 -0.024815915 0.17077018 0.19931082
0.22007273 0.110685416 -0.05971264 0.031004136 -0.25034544 -0.14456917 -0.046511564 -0.15719917
0.14606805 0.3718251 0.12696397 0.08896299 -0.19182388 0.12295317 -0.04331573 -0.21112043
0.06487119 0.095163174 -0.3974368 -0.273862 -0.19978267 -0.25201988 -0.037522554 -0.08579051
-0.29187644 0.23853937 0.012512113 -0.37260205 0.25168177 -0.08866824 0.1765767 0.202242
00000000: 70aa 1bbe 402d 763d 064e 213e 3622 fc3b
00000010: e7bc c93c f7cd 3f3e fe42 463d aef4 0abe
00000020: 6252 ec3d d15a 5cbd d9ec 9bbe 3433 083d
00000030: 091f 103e 8536 91bd 9ea6 2a3e cfbb 7e3e
00000040: 9c39 fcbd 75a3 ef3d 489d 2f3d 7493 123d
00000050: 9ebc e43d 2e5b 663e 9520 0bbe 678d 30bd
00000060: 186d 803b 1f54 22be c22e d6bd ff10 963e
00000070: 20e0 83be 4478 843d 7f5a 6cbd 3de0 11bd
00000080: 90ae 383e c277 a03c 461d 903d 849f 90bd
00000090: c581 80bd a28f bb3d 70f5 2ebe e118 413e
000000a0: c4ab cfbd 989d 253e d300 583e 5bca 543e
000000b0: cb14 0b3e dfea 86bc 5960 adbd 2e75 40bb
000000c0: 73fa b43d 7485 f73d f58b 8fbd b327 90be
000000d0: 0dcf 65be a171 08be 5a26 313c 0db7 c7bd
000000e0: 90b8 5dbe a2c9 973e 5d13 20be 267a 8fbe
000000f0: 3ad9 863e 8b9b 21bd bd77 b6bc f667 793c
00000100: dc3e b63e cbec 0dbe a4f4 92bc 3465 75be
00000110: a8f1 1cbd 4a9a 173e fc27 6b3c 9e94 03be
00000120: c026 1a3d 7e09 913e d5c1 4d3e c950 803e
00000130: 7cd4 623d 2c47 cdbd 9844 013d 5966 14be
00000140: 0e8b 1c3d 4f80 0d3e 2d40 0ebc 40cd 89be
00000150: 7220 6cbe 7905 93be 59bf 90bd a4d2 e4bd
00000160: 27cf 1ebb c224 a8bc 25a3 b43a a103 c5bd
00000170: d9fc 463d cb72 e43c a3fb 84bd 5681 53bd
00000180: 300a 963e 2718 2bbd 0a6a b83d a311 7cbe
00000190: 66fa 15bd 1361 b5bd 8ba9 353d d9b2 7cbd
000001a0: a642 26bd cfaa 6a3e 9e8b 4b3e aee0 053e
000001b0: 4504 1fbc 4967 563e 286c 6c3d 9a6e 7dbe
000001c0: c672 0bbe 1ce8 883e 714a 91be 582d 6ebe
000001d0: a5ab ffbd f437 78be 4789 1abd bede 23be
000001e0: c466 95be a88a b93d f9b5 0dbe 35e8 4fbe
000001f0: 240f 223e c305 b6bd f728 5b3e 49bb 4abd
00000200: d15b 14bd cfe1 2a3e 47a3 ce3d b551 613e
00000210: c54d 6ebd ea72 f3bd b48e cbbd ae81 36be
00000220: 1b9a 05bc e2e8 7bbb 401b 5abd d4ad ddbd
00000230: ddaa bcbc f2a9 cf3c 361f 203e 03ef 5a3e
00000240: 70fa b03d 60f7 3fbe ce74 553e 285c 2b3d
00000250: 198b e1bc 5ca4 1f3e 953f 3cbe 0aec 34be
00000260: 2f92 bd3b 6e57 82bd d429 623e e30d 7c3e
00000270: d58c 49be 3b5a 7b3d 30e1 c5bd 1a51 3ebe
00000280: 2f82 ed3d 2962 df3d 08b0 5bbd acf1 3a3d
00000290: f813 81bd ba42 d23d 2f33 d9bd bc70 a83d
000002a0: 22d6 9ebd a4d9 293e 04bb e13c 4787 693e
000002b0: ef52 7ebd c3a6 eb3c e116 a73d 82c4 6abe
000002c0: 7590 013e b7df 9ebd 7a68 62be 5b5a 35bd
000002d0: 8b47 fdbd 0288 c8bd 0ab0 74bd a511 f0bc
000002e0: 92a5 08be 4a78 64bd b667 15bd 9502 21bc
000002f0: 37bb 9b3e a904 4a3e 9100 aa3d b833 12bd
00000300: 6e00 b63e 9a85 49bd 107b 9abd 92c1 d0bd
00000310: 0a8c a8be 1d01 db3d d044 893d d2b8 373e
00000320: f04b f0bd 47d8 963e ab46 743e e955 143e
00000330: 46e9 96bd 2cbf 133e 2034 09be 2b04 b3be
00000340: 813f a6bd 2831 00be 707e b7be 0150 1abe
00000350: 953e e0bd cffa 97be 51d8 03be 166b bf3d
00000360: a382 aebe 9ee4 963e 2a08 ed3c 4e94 3abe
00000370: 04c5 873e bf4a cbbc 61de 2e3e 2318 4c3e
00000380: bf5a 613e 09af e23d 3e95 74bd 63fc fd3c
00000390: 472d 80be f109 14be e982 3ebd d2f8 20be
000003a0: dd92 153e dc5f be3e d802 023e 3a32 b63d
000003b0: 7b6d 44be dfce fb3d d66b 31bd f42f 58be
000003c0: 30db 843d e9e4 c23d d67c cbbe a437 8cbe
000003d0: d493 4cbe c008 81be 40b1 19bd efb2 afbd
000003e0: d470 95be aa43 743e 9bff 4c3c b2c5 bebe
000003f0: 6fdc 803e b297 b5bd 86d0 343e 8718 4f3e
